policy_net.pth (torch, 285286 bytes, 6 tensors)

fc1.weight f4 [256, 14]
000000 91 10 2e 3e 22 27 86 be 20 27 9d be e5 1f 83 3e
       0.16998507 -0.2620173 -0.30693913 0.2561027
000010 94 4e 0f 3e 3e 88 48 be e3 a6 33 bd 5b d5 a2 3d
       0.13994819 -0.19583222 -0.043860327 0.079508506
000020 2e 72 48 be bb ff 10 3e 3e 10 b7 3b 68 be ce be
       -0.19574806 0.14160053 0.005586653 -0.40379643
000030 b0 27 73 3e 6c d1 41 3e 35 1d 88 be 70 b9 1e bd
       0.23745608 0.18927544 -0.26584783 -0.038751066
000040 da ab 61 be 9a 16 cb 3e 17 fa 0b be 88 a5 f6 3d
       -0.22038212 0.3966568 -0.1366962 0.12043291
000050 46 72 a1 3e 4e 58 84 bb 60 ae 63 be 34 e2 37 be
       0.31532496 -0.004038847 -0.22234488 -0.17957383
000060 51 80 02 be e2 01 0e 3e bb df 90 3e d8 cd a4 3d
       -0.12744261 0.13867906 0.28295693 0.08047074
000070 55 5a b7 be df 6e 1e 3f 2d 03 08 be 4a 2a 12 3e
       -0.35811105 0.61887926 -0.13282461 0.14273944
000080 2f b7 3b be 0b 20 60 be 32 c3 c9 bd f3 1a 95 3e
       -0.18331598 -0.21887223 -0.09851684 0.29122123
000090 c0 e6 48 bd 56 4c 99 3e 4a 4d 4b be 43 2f 20 be
       -0.049048185 0.29941052 -0.19853702 -0.15643029
0000a0 74 95 5a 3d a8 8a 62 be 07 e8 b5 be a4 19 3e bd
       0.053365186 -0.22123206 -0.35528585 -0.04641117
0000b0 33 8f 5a be fa f4 82 be 72 66 1b 3e 9b 1f 2e be
       -0.21343689 -0.25577527 0.15175799 -0.17004244
0000c0 1b cb 58 3c 30 1b ca bd 82 8a de 3a ce 53 d3 3c
       0.013232018 -0.09868467 0.0016978534 0.025796797
0000d0 bf 4a 42 be aa 0b 5e 3e 57 86 8a be 56 a5 e2 be
       -0.18973826 0.21684137 -0.27055618 -0.44266766
0000e0 ca b7 65 bf c7 39 dc 3d 58 dd 4d 3d 6a 0c 31 be
       -0.89733565 0.10753208 0.050259918 -0.17289892
0000f0 2e 55 72 bb 0c 44 87 bd 13 24 97 3e 30 b8 1c be
       -0.003697704 -0.06604776 0.2951971 -0.15304637
000100 3d 14 32 3e 4a e0 f2 bd 44 e6 d8 bd 1d 82 ad bd
       0.17390533 -0.11859186 -0.10590795 -0.08472083
000110 18 67 08 3e 2f 1a 1b 3d 4e 0b 67 3e ad 3c 3e 3d
       0.13320577 0.037866767 0.22562906 0.046444584
000120 3b 33 8b be 20 4a 3b be 29 9d 0e 3e ba bc b3 bd
       -0.27187523 -0.18289995 0.1392714 -0.08776231
000130 d0 b8 0c be ed 5a d8 be 87 17 88 3e aa 7a b2 3b
       -0.13742375 -0.4225687 0.2658045 0.0054467516
000140 9e a6 b0 be a8 4e 10 3b a2 65 72 3e d1 74 0e bf
       -0.3450212 0.002201954 0.23671582 -0.55647
000150 7f 4c 03 bf 3d 18 cf bc b6 b0 87 3e 36 48 99 be
       -0.512886 -0.025280112 0.26502007 -0.29937905
000160 49 63 d1 bd 7b d4 7a 3b 1b 72 70 3e 71 e9 76 be
       -0.10224015 0.003827362 0.23481028 -0.24112488
000170 07 2c 48 bc c8 bd 0b bd c0 67 3a 3d 01 5c 5e 3c
       -0.012217528 -0.034116536 0.0455091 0.01357174
000180 1b 17 26 bd 5d 6e 80 bd 40 46 e4 3d 1e 57 86 be
       -0.04054938 -0.0627105 0.111462116 -0.2623834
000190 7c 4b 69 3d 54 88 f1 3e 66 46 bf 3d 94 63 99 bc
       0.056956753 0.47174323 0.09339599 -0.01872424
0001a0 b7 e0 6f 3d 99 51 1c be a3 08 48 be 91 44 0e 3e
       0.058563914 -0.15265502 -0.19534545 0.13893344
0001b0 bf 48 7b 3e ff 00 75 be 6a ae c4 be c6 60 19 3e
       0.24539469 -0.23926161 -0.38414317 0.14978322
0001c0 20 0a 73 3e 53 ba 12 bd 00 c8 58 3e 30 c8 3b 3d
       0.23734331 -0.035822224 0.21170044 0.04584521
0001d0 55 dd 78 3d 5a 92 2d 3e 6f d7 9d be 1e c9 40 3d
       0.060757954 0.1695036 -0.30828425 0.0470668
0001e0 8f af 20 be 39 82 88 3d 99 63 ae bd ac c2 36 bd
       -0.1569197 0.06665463 -0.085150905 -0.044619247
0001f0 31 dd 34 be a7 d9 2e be 89 cf c4 be 90 73 4d 3e
       -0.17662503 -0.17075215 -0.38439587 0.20063615
000200 ac 7e 0a 3e 70 2c 0f be c8 00 eb bd 51 15 60 bc
       0.13524884 -0.13981795 -0.114747584 -0.013676957
000210 e3 80 6b be 1e f2 c1 be dd 29 cd 3d 1f ff 76 3e
       -0.22998385 -0.37880033 0.100177504 0.24120758
000220 26 5d 60 bd b0 29 8b be a5 59 0c 3e 2a d7 66 bd
       -0.054776333 -0.27180243 0.13706072 -0.05635754
000230 78 76 a2 3e 03 8e a5 3e f9 e0 8c 3e 0d a7 3e be
       0.3173101 0.3233491 0.2751539 -0.18618412
000240 20 e7 c0 bc 5e cc 5f 3e fb 78 49 be 0e fc 94 bc
       -0.023547709 0.21855304 -0.19675057 -0.018186595
000250 8e 4c 79 3d 45 a8 1e 3d 81 1c af bd e5 a6 98 3d
       0.060864024 0.038734693 -0.085503586 0.074537076
000260 ff 0f 97 be 03 0e 8d be cc 4e 0c be 6a 6b 5e be
       -0.29504392 -0.27549753 -0.13701934 -0.21720663
000270 bd 69 1c be 6b cb 17 3c 4c 7a 0f 3e 7c 7e 55 bd
       -0.15274711 0.009264807 0.14011496 -0.052122578
000280 32 1d 9d be 30 9c b8 3e 9f a5 80 bd 48 93 f4 3b
       -0.30686337 0.36056662 -0.0628159 0.0074638464
000290 5f 6a cf bd 4e e7 ca 3e 1f 47 5e be 15 e6 0f 3e
       -0.101277106 0.39629596 -0.21706818 0.14052613
0002a0 0d c1 46 3e df df df be 4e 38 c1 3d ed a9 cd 3d
       0.1940958 -0.43725488 0.094345674 0.100421764
0002b0 55 91 72 bd 2f 7f 3c 3e ad 29 cd bd b8 28 84 3d
       -0.05922063 0.18407892 -0.10017715 0.06453079
0002c0 c5 17 c2 be 29 88 38 3e f1 a4 87 3d 24 78 f7 bd
       -0.3790876 0.18020691 0.06623257 -0.12083462
0002d0 4f c0 c4 3d f3 28 51 be d5 38 4c 3c 1f ea 9f 3e
       0.096069925 -0.20425777 0.012464722 0.31233308
0002e0 71 fe 8e 3e 98 e3 06 be 9c b2 17 be 93 4b 92 3e
       0.27928498 -0.13172758 -0.14814228 0.28573284
0002f0 0b 37 26 3d 0b d1 c3 be 48 6c a5 3e 43 98 4a bd
       0.040579837 -0.38245425 0.32309175 -0.049461614
000300 26 5e 3c 3e b1 08 56 3d 68 20 a6 3d b4 95 a5 be
       0.1839529 0.052254383 0.0811165 -0.32340777
000310 0d 7d 79 be e5 44 db 3d ca f3 6f 3e 29 e2 95 bb
       -0.2436411 0.107065 0.23432842 -0.0045740795
000320 58 8b d7 3e 5e 21 6b 3d c6 47 e4 bd 95 fb 95 bd
       0.42098498 0.05740487 -0.11146502 -0.07323376
000330 df cd 00 bd 7b 13 72 3e 34 91 bd be ae c5 ca be
       -0.031446334 0.23640244 -0.37024844 -0.39603943
000340 e0 19 90 be a1 4e cc 3c f4 73 0d bf 8e d3 df 3d
       -0.2814474 0.024939837 -0.55255055 0.10929023
000350 d2 c9 17 3e 47 e5 97 be 42 a3 6f bd 11 08 c4 bd
       0.14823082 -0.29667112 -0.058505304 -0.09571851
000360 db 76 a1 be fa 84 27 3e 22 6a 4d bd d8 3e 92 bd
       -0.31535992 0.1635932 -0.050150044 -0.07140893
000370 20 94 e4 3c bd e4 6c 3e fa 3e 52 bd 11 25 92 be
       0.027902663 0.23134132 -0.05132959 -0.28543904
000380 aa 53 1c 3e cd 30 67 be bb c5 6a 3e 08 52 46 bd
       0.1526629 -0.2257721 0.2292699 -0.048418075
000390 66 c9 9b 3d 93 e7 c8 be c3 34 b9 3e cb 7f d1 be
       0.07606773 -0.39239177 0.36173066 -0.4091781
0003a0 54 77 9b be 1f bd 0a be 84 04 e2 3b c1 2f 83 3d
       -0.30364478 -0.13548706 0.006897511 0.06405593
0003b0 f2 a2 65 be b1 dc 96 bd 32 cc 9a 3d fd 82 a4 bc
       -0.2242544 -0.07366312 0.075584784 -0.020081991
0003c0 c8 18 37 bc da 32 23 3e 69 85 01 3e 16 fc 35 3e
       -0.011175342 0.15937367 0.12648548 0.17771944
0003d0 b2 ca a8 3d 18 9f ee be 20 a7 93 be 49 49 0a be
       0.08241786 -0.46605754 -0.28838444 -0.13504519
0003e0 d2 2f 5a be 9a f3 42 be d1 0a 05 3d 3c e1 cb 3d
       -0.21307305 -0.19038239 0.03248102 0.099550694
0003f0 8f 2d 43 3e 73 af 1e 3e eb 93 3e 3d 3f 22 dd 3d
       0.19060348 0.15496616 0.046527784 0.107975475

fc1.bias f4 [256]
000000 7f 28 38 bd 48 d6 28 be fa 4a 50 be af 5d 80 3d
       -0.044960495 -0.16487992 -0.20341101 0.06267869
000010 9e b6 a4 bd 8c cf 89 be 84 41 cb bd 29 a1 85 3c
       -0.08042644 -0.26916158 -0.099246055 0.016312199
000020 d8 64 d4 3d 07 64 06 3e 6a df d5 bd e6 7d 76 3e
       0.10370797 0.13124095 -0.104430035 0.24071464
000030 65 dd 8e be aa 4d ad bd c9 e8 32 3e 0f 30 72 bd
       -0.27903286 -0.08462079 0.17471613 -0.059127863
000040 0c 77 fa 3d 54 65 04 bd 46 cb aa bd bc 9c 86 be
       0.12229738 -0.032323197 -0.083395526 -0.26291454
000050 c2 a4 33 3d 31 c0 d0 3d 78 57 70 3e 7a fa 14 3d
       0.043858297 0.101929076 0.23470867 0.036371686
000060 0c 9c 3a be f5 9e 96 3d 48 aa a9 bd 2c 8a 15 bd
       -0.1822359 0.073545374 -0.08284432 -0.036508724
000070 92 9b 5a bd 1f 8e b3 3d be 75 16 be 20 93 39 be
       -0.05337102 0.08767342 -0.14693353 -0.1812253
000080 7b aa df bc 3d 72 c4 bd e9 c9 cd 3d 0a 37 0c be
       -0.027302971 -0.09592102 0.10048277 -0.1369287
000090 4f 12 94 be 79 25 97 bd 9d 1f 50 bd e1 b4 6f 3e
       -0.28920218 -0.07380194 -0.0508114 0.23408844
0000a0 26 16 88 3b fb 5a 60 be c4 2f 95 3d 69 0e c4 be
       0.004153031 -0.21909706 0.07284501 -0.38292244
0000b0 cc bc ae 3d 6a 62 ec bd 55 ef a6 bd 7a f2 85 3c
       0.08532104 -0.115422085 -0.08151118 0.016350973
0000c0 04 d1 23 3d 95 c9 dc bc 5d ce f8 bb 1c fd 35 bd
       0.039994255 -0.02695159 -0.00759296 -0.044430837
0000d0 7d 93 06 3d 90 20 05 be 84 58 09 3e c9 67 5c 3e
       0.0328555 -0.13000703 0.13412672 0.21523966
0000e0 9f 25 19 be 8f 3d 20 bd f8 fb 69 bd 75 54 dd 3d
       -0.14955758 -0.039121207 -0.05712506 0.108071245
0000f0 77 48 56 be 47 cb 90 bd cd 75 01 be 79 31 4c 3d
       -0.2092608 -0.07070022 -0.12642594 0.04985187
000100 eb 51 71 3e 9d ca 3b bd 85 2f 99 bd a4 ca 21 be
       0.23566405 -0.045847524 -0.07479767 -0.15799958
000110 01 80 de bd a2 d6 19 3c 09 0d 75 3e ca e1 c5 3d
       -0.108642586 0.009389551 0.23930754 0.096622065
000120 11 85 1f 3d 93 c3 81 be 23 69 82 be dd e7 cd 3d
       0.03894526 -0.25344524 -0.25470838 0.1005399
000130 45 a8 e2 3e d2 54 7b be 6d 1d 33 3e f9 25 8f be
       0.44269004 -0.24544075 0.17491694 -0.27958658
000140 02 da c8 bd f4 52 5a 3e 2d 0a 88 be 10 75 0a 3e
       -0.09807207 0.21320707 -0.26570264 0.13521218
000150 a4 58 0a 3e 60 b7 c5 bd d9 f1 a1 3d b6 7d 0f bd
       0.13510376 -0.09654117 0.07907457 -0.035031997
000160 e8 19 ca 3d 59 00 1d bc 8d b8 a7 3e 75 4d fa 3d
       0.098682225 -0.009582602 0.3275799 0.12221805
000170 18 44 76 be 3a 84 90 bd ee 3e 83 be 48 a8 47 bc
       -0.24049413 -0.0705647 -0.2563395 -0.0121861175
000180 f2 1b e7 3d ec 04 a0 3e a2 5f b0 ba 90 a2 9d 3b
       0.11284627 0.31253755 -0.0013456235 0.0048106387
000190 cc d8 74 bc 25 03 d1 bd 7f 5f 0e 3e 39 b0 09 be
       -0.0149442665 -0.10205678 0.13903616 -0.1344613
0001a0 7d 53 2c 3e 57 45 b7 3d 9e fa a5 bd 7d fe 13 be
       0.16828723 0.089487724 -0.08104442 -0.14452548
0001b0 36 ed ca 3d 9d 96 86 be 0a bd f5 bd aa 8b dc bd
       0.09908526 -0.26286784 -0.11998947 -0.10768826
0001c0 7b 78 1e 3e 10 34 65 be 11 1b 49 3e d5 df b8 bd
       0.15475647 -0.22383142 0.19639231 -0.090270676
0001d0 e9 e7 92 be 17 c4 32 be 57 d5 be bd 93 60 51 3d
       -0.28692558 -0.17457615 -0.09318035 0.05111749
0001e0 e7 e3 01 3c 25 c8 88 3d f1 2c a8 bd 66 63 0d bc
       0.007927871 0.066787995 -0.08211697 -0.008629655
0001f0 b5 7b 3b 3e 28 8b d2 3d c1 0c 86 bd e4 33 c6 3c
       0.18308909 0.10280448 -0.06545401 0.024194665
000200 f5 39 67 3e 98 83 71 be de da 80 bd ef a8 9c bd
       0.22580703 -0.23585355 -0.062917456 -0.07649409
000210 23 ac dd 3d 32 f3 06 3e 1f dc 57 3e 82 fb 57 3e
       0.10823848 0.13178709 0.21080063 0.21092036
000220 d8 29 92 bd c4 d6 46 bd 26 48 89 be d9 95 14 be
       -0.07136887 -0.04854466 -0.26812857 -0.14510287
000230 0c 53 41 3e c4 5b 24 bd 9d f7 d1 3d 4c 4d 9b bc
       0.18879336 -0.040126577 0.102523066 -0.018957756
000240 8e e6 79 be 40 ae 0d be 7f 66 a5 bc 39 6d 60 3d
       -0.24404356 -0.13836002 -0.020190476 0.054791663
000250 8a fd cf bd f3 1f c0 3c 91 2d 69 be 6e 68 21 3c
       -0.101557806 0.023452735 -0.22771288 0.009851558
000260 40 14 88 be d5 54 4d be 3a 00 2e 3e 7a 13 e4 bd
       -0.2657795 -0.20051892 0.16992274 -0.11136527
000270 f8 cf 41 3e 7a d9 5a be fc 1e d5 3d 32 47 4b be
       0.1892699 -0.21372023 0.104063004 -0.19851378
000280 af 98 57 be a5 fc 71 bd 99 fd 7d be ba 49 0b 3e
       -0.21054338 -0.05907883 -0.24803771 0.13602343
000290 c4 7e 85 3c f2 8f 0e be 14 9b a7 3b ea a6 04 3e
       0.016295798 -0.13922098 0.0051149223 0.12954298
0002a0 72 88 1f be 07 d4 09 bc 77 aa 49 be 4e a1 3a 3d
       -0.15579394 -0.008412368 -0.19693933 0.04556399
0002b0 9c a9 a0 bd 37 ed d1 bd 24 2e 24 be f3 6f 36 bd
       -0.078448504 -0.10250323 -0.16033226 -0.044540357
0002c0 fa 4f 34 be 7a ce 67 bc 94 ed 2d bd d7 18 74 be
       -0.17608634 -0.014148349 -0.0424629 -0.238376
0002d0 a6 0a d2 3b 60 61 80 3e 47 36 08 3e 27 ac 39 3e
       0.006409961 0.2507429 0.13301955 0.18132077
0002e0 c2 0c 20 3e d2 ed d8 bc 50 55 b8 bd e1 da f9 bd
       0.15629867 -0.026480589 -0.09000647 -0.12199951
0002f0 a6 91 56 3e 54 0e 3e 3d 70 46 fa bd ff d4 e7 3d
       0.20953998 0.046400383 -0.12220466 0.11319923
000300 e9 ae 48 3d 9b 05 69 be f5 39 2d be b4 76 32 3e
       0.048994932 -0.22756045 -0.1691664 0.17428094
000310 da 88 0c be 68 8d 9d bd 3f c9 dc bd bb 9e 5f be
       -0.1372408 -0.07692987 -0.10780572 -0.21837895
000320 3c 75 0b be be a3 8e 3d 28 da 1f 3d 36 f2 54 3e
       -0.1361894 0.06964825 0.03902641 0.20795521
000330 b8 26 60 be 83 8f 3e be 04 88 64 be 41 d2 28 bd
       -0.2188977 -0.18609433 -0.22317511 -0.04121614
000340 15 0a 4f be e7 92 a3 be 23 8c 64 be 6c 82 9c 3d
       -0.2021869 -0.31948015 -0.22319083 0.076420635
000350 f6 0d d2 be a5 7a e0 3d 14 db 11 be e1 3b ec 3c
       -0.41026276 0.109608926 -0.14243728 0.028837146
000360 91 00 45 be c0 4e 91 be 08 26 86 3c 4e d0 37 be
       -0.19238497 -0.28380394 0.016375557 -0.17950556
000370 ee 3a 90 be 6b 85 81 be d5 bf 27 3e c8 f3 8f 3e
       -0.2816996 -0.25297102 0.16381772 0.28115678
000380 23 53 ce 3d fa 08 be bc 1b bf 71 3d 77 97 e6 bc
       0.10074451 -0.02319764 0.059020143 -0.028148396
000390 a6 fd 59 bc 95 c9 c4 bd 9d 12 2a be c4 31 ee 3c
       -0.013305103 -0.09608761 -0.16608663 0.029076464
0003a0 54 08 5f be 0e 7a 49 bc 2a fc 01 3e b0 33 9f be
       -0.2178052 -0.0122971665 0.12693849 -0.31094122
0003b0 7a 51 3b 3e 3f 9b 02 3c dd 50 6e be fe 0a 23 be
       0.182928 0.007971584 -0.23273034 -0.15922162
0003c0 b3 6a 31 3b 3e 07 57 be 65 73 86 be 9a 18 49 3d
       0.0027071654 -0.20998856 -0.26259914 0.049095728
0003d0 ef 25 46 be b3 65 73 be b0 8c 07 3d 29 3a e4 3d
       -0.19350408 -0.23769264 0.033093154 0.11143906
0003e0 dd e9 1f bc 6d ba 2f 3d a1 bb 19 3e d4 8a 78 bc
       -0.009760347 0.0429024 0.15012981 -0.015169818
0003f0 4a 3c 67 3e b2 cd 59 be 20 96 c0 bc 4e a5 d4 bc
       0.22581592 -0.21269873 -0.023509085 -0.02595773

fc2.weight f4 [256, 256]
000000 87 a7 11 be 1a 48 74 bc a1 88 d2 be eb 69 3f be
       -0.14224063 -0.0149097685 -0.41119865 -0.18692748
000010 4e 45 92 bc 5c ee b9 be fe 79 84 bd 4c 81 c0 bd
       -0.017855313 -0.36314666 -0.06468581 -0.093996614
000020 c8 41 26 3d d2 b4 44 bc 74 0c 1a 3e 59 0e 65 be
       0.040590078 -0.012006002 0.15043813 -0.22368754
000030 5e 1e a1 bd 7e e4 90 3d 04 1d bd bd aa f5 85 bc
       -0.0786712 0.070748314 -0.0923405 -0.016352493
000040 44 88 d4 3c 2a da 95 bd 42 d8 2d 3d 51 65 92 bd
       0.025943883 -0.07317002 0.042442568 -0.07148231
000050 57 0e 75 be 9c 83 5e 3b bc dd 5c bd 97 c3 29 be
       -0.23931251 0.0033952957 -0.0539224 -0.16578518
000060 2f c0 e3 bd 84 ae 3c bd 21 fe 85 be a7 a9 ea bd
       -0.111206405 -0.04606487 -0.26170447 -0.1145814
000070 5f 4e c2 bb bf ad 0b be 27 57 12 3e 0b e8 79 3e
       -0.0059297527 -0.13640498 0.14291058 0.24404924
000080 f4 89 8b bd df 54 58 be 0c da 33 bd 6d 1a a1 be
       -0.06813422 -0.21126126 -0.043909118 -0.31465474
000090 1e 30 2e 3d d8 34 90 bc 11 d8 06 bc 0e 52 40 bd
       0.042526357 -0.017603323 -0.008230225 -0.046953253
0000a0 6b 43 47 bb 6c 77 9d bd 22 d6 6f be 53 2e d6 3d
       -0.0030405174 -0.076887935 -0.23421529 0.104580544
0000b0 ca 02 7e bd be 2b 64 bd 66 28 31 3e 9f 55 49 bd
       -0.06201438 -0.05570578 0.17300567 -0.04915392
0000c0 af 9c f0 bb f7 bc 7b bd 32 09 fb 3d 4b 39 1c bd
       -0.007342897 -0.061459508 0.12257613 -0.038140576
0000d0 2a 51 5b bc 3a 6b 46 be 30 2b 8b 3d dc d6 0e bd
       -0.01338605 -0.19376841 0.06795347 -0.034872875
0000e0 f8 b1 9f be de 4e be bc 76 e7 ca 3d 6f c3 ac 3d
       -0.31190467 -0.023230966 0.09907429 0.084357135
0000f0 57 06 83 bd 2e 77 a8 3d fa 28 bf 3b 74 c7 7d be
       -0.063976936 0.08225857 0.005833742 -0.24783117
000100 ae 7a 3d be e1 38 88 be d4 d4 1d 3c 8e 11 98 bb
       -0.1850383 -0.26605895 0.009633262 -0.0046407646
000110 90 b0 8d bc d0 70 6d bc 1b 12 00 be 38 aa 04 bd
       -0.017296106 -0.014492229 -0.12506907 -0.032388896
000120 cb 11 1b 3d 7c 9b 97 bd 66 b5 b0 3d 35 e9 95 bd
       0.037858766 -0.07402703 0.08628349 -0.07319871
000130 b5 72 37 be ed 24 9e 3d 0d 32 3f bd 3d dd 70 3e
       -0.17914851 0.07721887 -0.04667859 0.23521896
000140 f6 04 a5 bd ec ac d3 bd a6 bc 9b bd 43 26 6c bd
       -0.08057587 -0.103357166 -0.07604341 -0.057653677
000150 94 eb 2c bc b9 0c 85 bd 73 4c 4d bd c6 3d 98 bd
       -0.010554213 -0.06496567 -0.050121736 -0.07433657
000160 f9 86 89 bd 69 40 0f be 2c a8 ed bc f1 5e 6a bd
       -0.06715197 -0.13989414 -0.029010855 -0.05721945
000170 6b a3 11 be 73 05 93 3d 55 f0 15 bc bf d5 2b be
       -0.14222495 0.07178774 -0.009151538 -0.16780756
000180 84 7d 52 bd 53 41 44 bd f9 55 49 bd cb d8 45 3a
       -0.051389232 -0.04791386 -0.049154256 0.0007547258
000190 9f 07 bf bc c6 ef 95 3c ea e0 93 3c f2 b2 f6 bd
       -0.023319064 0.01830281 0.018051583 -0.1204585
0001a0 17 60 04 3d 26 88 75 bd 9a 7b 09 be 53 5a 99 3d
       0.0323182 -0.059944294 -0.13426057 0.07487931
0001b0 ff d9 1a be e1 35 1a bd 0c c9 1a 3e a6 c7 a0 bc
       -0.15122221 -0.03764904 0.15115756 -0.01962645
0001c0 0e 15 e8 3d ce d2 9e 3d 38 f1 9d 3d 7d 7d 51 be
       0.11332141 0.077550516 0.077120245 -0.20458026
0001d0 1f 01 c7 3d 60 d8 17 bc e7 58 24 3e ec 3e c0 bd
       0.09717011 -0.009267896 0.16049539 -0.093870014
0001e0 15 9b 89 bd 32 3d 55 be 85 88 b3 3c 5e 38 26 be
       -0.06719033 -0.20824125 0.021915684 -0.1623244
0001f0 56 85 57 bd 16 2b b7 bd 7c 75 2e 3e 0a 4d 2d 3d
       -0.052617393 -0.08943765 0.17037004 0.0423098
000200 56 09 66 be 2a d3 14 3e 12 4c da be c4 00 33 3d
       -0.22464499 0.14533678 -0.42636162 0.043701902
000210 29 93 00 3d f3 77 c0 bd 9d 82 43 be 82 f6 34 3c
       0.031390343 -0.093978785 -0.19092794 0.0110451
000220 90 73 84 3d da 17 db 3d dd 11 ff 3d 50 5e aa bd
       0.06467354 0.10697909 0.12454579 -0.0831877
000230 07 d2 a2 be ce 2b 15 3d f2 67 62 be 93 9f 15 bc
       -0.31800863 0.03641873 -0.22109964 -0.009132284
000240 23 61 ec bd f1 9d db bd 4e f9 ff 3a 58 1c ae bc
       -0.11541965 -0.10723484 0.0019529255 -0.02125375
000250 9e 12 2a 3e f6 bf 90 bd e8 2a dd bd f2 1a 66 3d
       0.16608664 -0.07067864 -0.10799199 0.05617804
000260 75 0a b4 bd d5 0d 42 3e 99 82 ea bd 73 91 f7 bd
       -0.08791057 0.18950589 -0.11450691 -0.12088289
000270 85 41 da bd 0a 2e 23 bd 3a d4 a4 3c 5e 50 08 be
       -0.10657028 -0.03983883 0.020120729 -0.13311908
000280 7f ee 1d 3d a0 b0 91 3e b5 b1 31 be 64 23 b6 bd
       0.038557526 0.28455067 -0.17352946 -0.08893469
000290 3d 4b eb 3b 2d 42 17 3d 5e a7 db 3c 35 59 e1 3b
       0.0071806 0.036928345 0.026813205 0.0068770894
0002a0 67 ee 3d bd a3 2d 32 bd fb 57 2c be bf 87 84 be
       -0.046369936 -0.043500554 -0.16830437 -0.25884816
0002b0 73 cc 34 bd 19 e8 5e bc 47 bd 7f bd 53 e2 2d 3e
       -0.04414029 -0.013605141 -0.06243637 0.16980867
0002c0 2c 87 3f be f8 27 58 be a2 35 88 bd d0 c4 6e 3c
       -0.18703908 -0.21108997 -0.06650855 0.014573291
0002d0 d9 2c 97 3d 56 b8 24 3c d1 35 e8 bd 1a 92 8b 3d
       0.07381601 0.010053715 -0.1133839 0.06814976
0002e0 4b 3a 67 be d0 5f 88 bd 16 b7 12 be 72 8b d5 bd
       -0.22580831 -0.066589 -0.14327654 -0.10426988
0002f0 c7 2f a1 bd e9 3a 91 3d b2 22 9b bd a1 4f 57 3c
       -0.07870441 0.07091314 -0.07574977 0.013141544
000300 1c 22 3f 3c 56 77 c9 be 41 9d ff 3a f3 b2 73 3b
       0.011665847 -0.3934886 0.0019501821 0.003718552
000310 79 8f 9e 3d 2d e6 16 3c f9 9f 3c be 1a ba b0 bd
       0.07742209 0.009210152 -0.184204 -0.08629246
000320 e6 b7 4e 3c 7b 00 29 be ae 52 1e be e1 ba bf bd
       0.012617087 -0.1650409 -0.15461227 -0.09361816
000330 0c 1f d5 3d e4 46 e8 bb cb 59 02 bf 6b e1 0a 3d
       0.10406312 -0.007088529 -0.50918263 0.03390638
000340 75 42 6c bd c2 15 12 3d fd 36 29 3c 2e b5 62 3d
       -0.057680566 0.03566528 0.010328052 0.055348568
000350 f3 ba a9 bc ed aa 4c 3b 8d 2c b6 bb c9 d6 72 be
       -0.020719027 0.003122981 -0.00555951 -0.23714747
000360 88 93 1e bc 50 10 8f 3e 1e d3 de 3d 27 7d a6 bd
       -0.009678729 0.27942133 0.10880111 -0.0812934
000370 0f a7 ef bd 8a dc 2b bd 84 58 40 3d 53 9c 11 bf
       -0.11701786 -0.04195837 0.046959415 -0.56879157
000380 eb b3 ef bc 8f 9f a9 3c 98 f5 88 bd 20 a4 4c 3c
       -0.029260596 0.020705966 -0.06687468 0.012490302
000390 ef 4e 54 3d 91 8d 66 3e f5 85 13 be 54 a7 94 bd
       0.05183309 0.22514941 -0.1440657 -0.07258478
0003a0 ab 5f a5 3c d3 ff 6f 3c f6 d8 83 bb fe bc bb 3b
       0.02018722 0.014648396 -0.0040236665 0.0057293167
0003b0 9d f2 06 bd 4f d6 b3 3c 62 74 fa bd 49 a2 f3 bd
       -0.032946218 0.021952776 -0.122292295 -0.11896188
0003c0 06 b3 d3 bd 5a 5e 65 bc 84 f3 39 3c 3e b0 8f 3d
       -0.103368804 -0.013999546 0.011349563 0.070160374
0003d0 0b a4 d4 bd dd 49 bd be 6b 7e 19 3d dd 65 7a 3d
       -0.10382851 -0.36970416 0.037474077 0.0611323
0003e0 bc 5e 01 bd 6f 34 b9 3d 92 b3 01 bd ad 90 50 bd
       -0.031584486 0.09043204 -0.031665392 -0.050919224
0003f0 72 38 85 3d 86 00 da bd 2a ca f3 bd 46 0d 92 bd
       0.06504907 -0.10644631 -0.11903794 -0.07131438

fc2.bias f4 [256]
000000 5f c2 96 3b df 7e d3 bc 83 75 8e bd fe d9 81 bd
       0.0046008076 -0.025817333 -0.06956007 -0.06340407
000010 00 92 dd bc 66 95 ab 3d d6 89 59 3d e8 86 5c 3d
       -0.027047157 0.08378105 0.053109966 0.053839594
000020 e6 ad 80 3c ed bc fe bd e0 62 b9 bd 1c 37 0e 3d
       0.015707921 -0.124383785 -0.09052062 0.034720525
000030 71 ae 1f 3e 96 de 5a bd 71 2c ce 3c c4 6b b0 bc
       0.15593888 -0.05343493 0.025167676 -0.021535762
000040 ad 55 47 3d a2 a4 bb bc c2 5f 73 bc 74 33 cc 3d
       0.04866569 -0.022905651 -0.014854373 0.099707514
000050 5a 3d cf bc 3b 70 96 3d 0c 98 d6 ba 75 e4 ae bd
       -0.02529781 0.07345625 -0.0016372218 -0.085396685
000060 5d f1 eb bd d1 48 9f bd 9c 4d a5 3c aa 2e 8d bd
       -0.11520646 -0.077775605 0.020178609 -0.06893666
000070 3b 99 52 bd 44 65 b5 3a 05 7e 50 bd 31 77 86 bc
       -0.051415663 0.0013839384 -0.05090143 -0.016414257
000080 bc 5c bc 3d 94 60 36 bc bf 00 35 bb 9a 85 52 bd
       0.09197375 -0.011131424 -0.0027618853 -0.051396944
000090 4d a0 c3 bd 98 2f 94 bd c8 e3 90 bd 22 2b 9a bd
       -0.09552059 -0.0723564 -0.07074696 -0.07527758
0000a0 90 c9 81 bd 9c 72 6e 3d 2a ad 6a bd 9d 7b bf bd
       -0.06337273 0.05821477 -0.05729405 -0.09349749
0000b0 5a df 1b bd f3 50 67 bd 06 56 c5 bc 70 0a d1 3c
       -0.0380548 -0.056473684 -0.02408887 0.025517672
0000c0 02 c6 d5 bc 54 e4 56 bc 53 79 99 3d f5 40 12 3d
       -0.026095394 -0.013115961 0.07493844 0.03570648
0000d0 6a 95 b0 bd 5b 7d db bc bd 85 fd bd 8e 4d e8 3d
       -0.086222485 -0.026793173 -0.12379024 0.113429174
0000e0 36 0b 24 3d e0 51 10 bd eb 1d 0c bd 45 13 e8 bc
       0.040049754 -0.035234332 -0.03420822 -0.0283295
0000f0 b6 d1 a3 3c 72 6d 8f bd b0 26 3b 3d 55 38 0a 3d
       0.019997459 -0.07003297 0.045691192 0.03374513
000100 b5 b9 43 bd 58 37 cc 3d 69 5f 64 bc e5 2e 3e 3d
       -0.047784526 0.099714935 -0.013938763 0.04643144
000110 2b 5e 15 bd 6d 2c 18 3d 52 4c c9 bd f6 f6 8a bd
       -0.03646676 0.037151743 -0.0982901 -0.06785385
000120 c3 27 cb 3c 7c 5b b0 bd 7e 25 23 3c 14 b1 ea 3c
       0.024799233 -0.08611199 0.009957669 0.02864889
000130 59 cf 40 bd b8 ef 19 3c 93 42 6a bd ca 64 f2 3c
       -0.047072742 0.009395532 -0.057192396 0.029589076
000140 e7 e2 79 3c 3a e9 84 bd f7 13 a1 3b e6 7f 18 bd
       0.015251852 -0.06489797 0.00491571 -0.03723135
000150 33 52 75 bd 3a a0 08 bd 5d ca bf bd 09 87 09 3e
       -0.059892844 -0.03335593 -0.093647696 0.13430418
000160 30 f3 01 bd de 62 6f bd 14 54 6e 3c 6a 05 b4 bd
       -0.031726062 -0.058443896 0.014546413 -0.08790095
000170 f6 b2 50 bd 8a db 09 bc 29 a1 33 bc 91 db 5b bd
       -0.05095192 -0.008414159 -0.010963717 -0.05367619
000180 16 80 9c 3d 33 94 cd bd cb 75 87 3c 1e a0 49 bb
       0.07641618 -0.100380324 0.01653566 -0.0030765603
000190 d5 79 12 3e 3f 4a 0a bd 0b 9c 58 bd 53 e3 1b 3d
       0.14304288 -0.033762213 -0.05288319 0.03805859
0001a0 05 ac b6 bc fa ef 7c bc 9b 73 8e 3c 92 7c 19 be
       -0.022298822 -0.015438074 0.01738911 -0.14988926
0001b0 69 eb 88 3d 2e aa 4e 3c 19 c8 80 bc 31 44 17 bc
       0.06685526 0.012613816 -0.015720414 -0.009232567
0001c0 fd 4b 4d 3c 21 38 5c bc b1 a7 d3 bd b1 b3 97 bd
       0.012530324 -0.013441117 -0.10334719 -0.0740732
0001d0 49 b2 c7 3b 4f 1a eb 3b 61 50 85 bd 19 f7 32 3d
       0.0060942513 0.007174767 -0.06509472 0.043692682
0001e0 cf 8d f8 bb 81 b9 06 bd b8 af b6 b9 0e 0b b7 bc
       -0.0075852643 -0.032891754 -0.00034844666 -0.022344138
0001f0 ea ff 7b 3c c8 59 61 3c 91 09 f0 bd 00 7e b6 bd
       0.015380839 0.013754316 -0.11720575 -0.08910751
000200 80 a9 91 3b c7 9e 1e 3c 89 c4 8e 3c a3 b3 cd bd
       0.004445255 0.00968141 0.0174277 -0.100440286
000210 2a 50 e8 bc dd 19 b9 bd 9e ac 6d bd ea e4 fa bd
       -0.028358538 -0.09038136 -0.05802595 -0.12250693
000220 5c 1f 74 bd f7 db a0 bd 8b 70 6d 3d 8b 22 e9 bd
       -0.05960022 -0.07854455 0.057968657 -0.11383542
000230 a3 e1 b4 bd 1a 6e cf bd f7 79 2f bd 6e 85 e5 3c
       -0.08832099 -0.10128422 -0.042840924 0.028017726
000240 54 b6 20 3d 37 67 5a bc 24 57 d3 bd 8d 0f 08 3b
       0.03923638 -0.013330272 -0.10319355 0.0020761222
000250 f8 fa b1 3c a9 64 0e 3e f3 a4 a9 bd 1a 93 a3 bd
       0.021726117 0.13905586 -0.08283415 -0.07987042
000260 98 6d 50 bd b6 31 56 bb 13 c9 9e 3d 81 2b 9c 3c
       -0.050885767 -0.0032683439 0.077531956 0.019063713
000270 60 68 66 bc 6e 5c 41 bd 96 64 73 bd c9 52 97 3b
       -0.014062971 -0.04720729 -0.059422098 0.004618023
000280 a7 f2 f9 bd b3 77 2d bd de 74 1b bd df 82 0b be
       -0.122044854 -0.042350482 -0.03795325 -0.13624142
000290 c4 06 8d bd 7b f5 4d bd b3 dc 97 3c 0d b6 86 bd
       -0.06886056 -0.050282937 0.018537855 -0.06577692
0002a0 26 8a 83 3c 48 86 6f bd 20 0c 40 bd aa 75 07 3d
       0.016057085 -0.05847767 -0.046886563 0.033071198
0002b0 43 24 73 bd 65 25 a7 3b ea ee 87 bd 21 fd 83 bd
       -0.059360754 0.0051008933 -0.06637366 -0.06444765
0002c0 50 39 67 bd 85 db 44 bd 02 8e cc bc 1e 66 03 bd
       -0.05645114 -0.048060913 -0.024970058 -0.03207981
0002d0 cf be 14 3c fb 0a 49 3e 3b c1 03 ba c9 34 bd 3c
       0.009078695 0.19633095 -0.0005026047 0.023096459
0002e0 07 16 09 3e 44 73 c6 b9 65 c7 82 3d 88 5d 47 bd
       0.13387309 -0.00037851383 0.06385688 -0.048673183
0002f0 78 0d 25 3b f8 72 63 3d 08 d9 a2 3d 78 f2 ed bc
       0.002518503 0.055529565 0.07951552 -0.029046282
000300 b9 50 99 bc 4f b8 b2 bd 3c 46 80 bd 8d 2c b0 bd
       -0.01871525 -0.0872656 -0.06263396 -0.086022474
000310 92 90 f3 bc 24 9e 74 bd cb 34 a4 3b bd 8e 09 3e
       -0.029732022 -0.059721127 0.005011176 0.13433357
000320 8b e4 2a 3d 41 0b e9 b9 29 37 4d bd 26 be f1 bc
       0.04172186 -0.00044449608 -0.050101433 -0.029509615
000330 50 b4 63 bd 43 51 fe bc db 7d ea bd 59 08 bd bd
       -0.05559188 -0.031044608 -0.11449786 -0.09230108
000340 be e0 7e bd d2 5d b8 bc 82 68 d3 bd 5f 71 90 bc
       -0.06222605 -0.022505675 -0.10322668 -0.017632185
000350 11 0f a2 bd 24 a6 6f bd f8 64 d1 bd bf 24 fa bc
       -0.0791303 -0.058508053 -0.102243364 -0.0305351
000360 ad c8 7c bd 3a 7f 9d 3d 95 2b 11 be cd b6 15 bd
       -0.061714817 0.07690282 -0.14176781 -0.036551286
000370 44 d6 6e bd 26 c3 71 3c 20 c1 3e bd 20 d6 5c 3a
       -0.05830981 0.014756 -0.046570897 0.0008424241
000380 ee b9 9e bd 87 9d 6d 3d 46 ea be bd 0a e4 9c bd
       -0.07750307 0.058011558 -0.09322028 -0.076606825
000390 10 bf c8 bd 4d b3 d7 3d d4 a2 64 3d 99 28 6b 3d
       -0.09802067 0.10532246 0.055819348 0.057411764
0003a0 cf 69 a6 3d 2d 98 79 3d 26 9c d1 bd 76 f0 90 3c
       0.0812565 0.06093614 -0.10234861 0.017692786
0003b0 f9 3e f5 3c 2a 13 85 bd f1 61 3d bc 20 4b 72 3d
       0.029937254 -0.06497796 -0.011558996 0.059153676
0003c0 42 f9 54 3d fb 6e a9 bd b4 ad d2 b9 a8 56 1c bc
       0.051995523 -0.08273121 -0.0004018374 -0.009542145
0003d0 03 54 ba bd cd 81 7c bd a0 b2 7d bb 48 46 52 3c
       -0.09098055 -0.061647225 -0.0038711205 0.012834139
0003e0 bb 6d 94 bd c5 f1 a8 bd 3d 3f 94 bd 2b ca 82 bd
       -0.07247492 -0.08249239 -0.07238624 -0.06386217
0003f0 3d 77 86 3c bf 40 99 b9 73 19 ed 3d 3b 0e 07 be
       0.01641428 -0.00029230674 0.1157712 -0.13189022

fc3.weight f4 [4, 256]
000000 27 f4 cb 3c 78 c9 c2 bc 69 ec 59 bc eb cc d9 bc
       0.024896694 -0.023777708 -0.0133009935 -0.02658697
000010 16 a6 3f 3c 0f a6 89 3e 13 03 98 3d 1b 5e c6 3d
       0.011697313 0.26884505 0.07422461 0.09685918
000020 0f 67 9b 3e bc f3 4b be c0 c0 d6 bd f8 cc 0c 3c
       0.30352065 -0.19917196 -0.10485983 0.00859379
000030 e1 ba e9 3d d5 58 5f 3d ed 6a a3 be 78 65 2e 3d
       0.114125974 0.054528076 -0.31917515 0.042577237
000040 99 6b eb 3c ab 51 26 3d 74 e2 92 bc 34 9c e5 3d
       0.02873783 0.04060523 -0.017930247 0.11211434
000050 1f 51 c5 bd b9 d5 b2 3c 31 a3 99 3d 61 4d 99 3d
       -0.09634613 0.021830427 0.075018294 0.07485462
000060 9e 58 97 bc a0 4e cd 3c 92 48 49 be 40 d2 b0 bb
       -0.018474873 0.025061905 -0.1965659 -0.0053961575
000070 7d 38 95 be 42 d1 f4 3b f6 f3 bc 3c f7 55 29 be
       -0.2914466 0.0074712345 0.023065548 -0.16536699
000080 75 f2 e8 3d c7 10 ba bc 17 c0 dd 3d 52 5c 0f be
       0.1137437 -0.022713078 0.10827654 -0.14000061
000090 7b ef 62 bd 02 07 4b be 58 1c af bd 7d e8 c0 bb
       -0.055404168 -0.19826892 -0.08550328 -0.0058870898
0000a0 7d 7b 14 3e bd 4d 67 3d 55 85 83 3c 40 59 ea bd
       0.14500232 0.05647062 0.016054789 -0.11442804
0000b0 ef 23 00 be 0b ef 04 be ad f3 8c 3d 18 99 fc bc
       -0.12513708 -0.12981813 0.06882415 -0.03083472
0000c0 54 c0 04 bd 58 eb e3 ba 9b 86 cd 3e e1 35 c9 bd
       -0.03240998 -0.0017388863 0.40141758 -0.0982473
0000d0 eb 64 1e be e7 d9 c8 3c 28 17 22 be 44 c4 98 3d
       -0.15468185 0.024517966 -0.15829146 0.0745931
0000e0 83 c2 83 bd 88 06 f1 39 67 74 91 3b 39 48 7a bd
       -0.064335845 0.00045971968 0.004438925 -0.061104033
0000f0 29 fb b1 3e 57 ee 32 3d 97 fc db 3e 28 0a a1 3c
       0.34761932 0.04368433 0.42966148 0.019658163
000100 57 da 25 3d 5a f1 1c 3e 16 7d 89 3c e3 35 86 3e
       0.04049143 0.15326443 0.016783278 0.26212987
000110 85 62 bb 3d de 3c 40 3d 79 d8 9e 3d ae e1 f4 3d
       0.091496505 0.046933047 0.07756133 0.119571075
000120 01 bd 84 3c 16 41 fe bd f9 6c e6 3d 87 b2 25 bd
       0.016203405 -0.12414758 0.11251254 -0.04045346
000130 95 da 07 3a 0e a3 1d be a2 10 46 3c 97 8c 43 3d
       0.00051824126 -0.15394232 0.0120889265 0.0477415
000140 95 62 64 3e 98 b0 84 bd 95 3c 36 3e 2c e7 98 3a
       0.22303231 -0.06478995 0.17796548 0.0011665574
000150 eb 37 b6 bd f0 01 30 bc 85 2f da bd 68 98 a0 3d
       -0.08897384 -0.010742649 -0.10653595 0.07841569
000160 54 64 3a 3d 10 57 06 3d d6 c9 85 3b fa b8 8c 3d
       0.045505837 0.032797873 0.0040828986 0.06871219
000170 dc b1 ac bd e5 31 2e bc 30 c6 7f 3d 50 36 87 3c
       -0.084323615 -0.010632013 0.062444866 0.01650539
000180 66 7b b2 3d 89 5f a4 3d 25 c4 0a 3e 11 ef c0 3b
       0.08714943 0.080260344 0.13551386 0.005887874
000190 73 b2 ce 3d f4 87 68 bd 16 ca 6a 3c da 83 d4 3c
       0.1009263 -0.05677028 0.014330408 0.025941778
0001a0 47 c0 33 3d a6 60 00 3e 47 0c ff bc e4 b3 af be
       0.04388454 0.12536868 -0.031133784 -0.34316933
0001b0 9a 7f 6b bc 91 ce 71 3e ea d4 c4 be 49 a5 8a 3d
       -0.014373684 0.23613955 -0.3844369 0.06769807
0001c0 b5 40 de 3e 1e 5a 36 3e b0 9b a1 bd 84 53 74 bc
       0.43408743 0.17807814 -0.07891023 -0.01491249
0001d0 b4 75 c6 3d 0c 4c 8a 3d 46 b6 8f 3d 38 0a f4 3c
       0.09690419 0.06752786 0.07017188 0.029790029
0001e0 0c aa 68 3e e2 b7 18 be 8c 7c eb 3d 3d aa 0a bd
       0.22721118 -0.14913896 0.11498365 -0.033853758
0001f0 29 d1 ce 3c 54 5e 8b 3d fe 57 ba bd c9 a9 04 be
       0.02524622 0.06805101 -0.090988144 -0.12955393
000200 65 22 8c 3d f2 2d 88 3d 03 f2 60 3d b6 03 8d bd
       0.06842498 0.066493884 0.0549183 -0.068854734
000210 51 a1 48 be ea 1e bb bd 34 1d 98 3b 53 26 9a bd
       -0.19592787 -0.09136756 0.004642153 -0.07526841
000220 d3 63 d3 be 5e 77 e2 be 06 83 ec 3d 1f de 94 3c
       -0.41287097 -0.44231695 0.11548428 0.018172322
000230 c0 1e 8e bd 26 67 49 bd df 6f 15 be f1 d8 50 3d
       -0.06939459 -0.049170636 -0.14593457 0.05098814
000240 9d e5 ea 3c 58 94 48 be a3 9a 86 3c ba d2 5e 3c
       0.028673941 -0.19587839 0.016431158 0.013600046
000250 56 5f 1a bd 96 58 bb 3d d5 da 2c be 94 eb aa 3c
       -0.037688576 0.09147756 -0.16880353 0.020864286
000260 15 d5 c4 be 8f 44 22 3b 0f 91 33 bd 16 63 4a 3c
       -0.3844382 0.0024760102 -0.04383951 0.0123527255
000270 09 9b a6 bd d2 ee 6a bd 3d bf c8 3c 14 d1 73 3e
       -0.08135039 -0.057356663 0.024505252 0.23810226
000280 9d fd cb be 35 6e 35 3c a4 94 b7 3c 4f bb ff bd
       -0.3984193 0.011073639 0.022409745 -0.12486898
000290 65 29 8b bd 99 0b 34 3e a2 85 ee 3e 37 5c dc bd
       -0.06795005 0.17582549 0.4658633 -0.10759776
0002a0 3d 74 52 3d b2 7f 1e 3e 76 46 3e be c3 87 0d 39
       0.051380385 0.154784 -0.18581566 0.00013497383
0002b0 e3 4b d8 bd 70 01 e9 3c 6c b5 88 be c7 36 0f bd
       -0.10561349 0.028443068 -0.26700914 -0.03496435
0002c0 f9 17 39 3e d3 71 1e be 80 81 1f be eb fd 86 bc
       0.18075551 -0.15473108 -0.15576744 -0.0164785
0002d0 13 f8 12 3d 87 62 04 3e 0b c8 e7 3d c1 a5 36 3c
       0.035881113 0.1292821 0.11317452 0.011147917
0002e0 77 27 0b 3e 35 82 89 3d e5 dd 96 3d 03 3b 9d 3b
       0.13589273 0.06714288 0.07366542 0.0047982945
0002f0 43 9a 90 bc 76 44 a6 3b 2c 5c 40 3d 9d 3a ef bd
       -0.017651683 0.005074079 0.046962902 -0.116811015
000300 b8 80 30 3d 6c 7b a3 3d ff fb 41 3e 85 3e b3 bc
       0.043091506 0.07982525 0.18943785 -0.021880398
000310 78 66 b7 bd bc c1 51 3d c1 68 7b bc 6f 46 9c 3c
       -0.08955091 0.05121015 -0.0153447995 0.019076554
000320 02 f2 92 3d 22 84 a0 3e 8e c1 13 bd 42 07 08 3d
       0.071750656 0.3135081 -0.03607326 0.033210047
000330 5a 05 67 3c e4 4a 8c 3c 35 1c ed bd 14 16 29 b9
       0.014100397 0.017125554 -0.11577646 -0.0001612532
000340 28 d2 1c be 03 06 c7 bc ed 90 da bd 51 88 f9 3d
       -0.15314543 -0.024294859 -0.10672174 0.121842034
000350 4c a3 40 3d 4d c7 35 bc d7 b0 a2 3d 8d eb 3c bd
       0.047030732 -0.01109488 0.07943886 -0.046123076
000360 f0 23 88 3e b8 52 f4 3d bc 67 b1 bd c4 0a cb bc
       0.26589918 0.1192984 -0.08662364 -0.024785407
000370 6e cc 74 be c2 86 31 bd c0 d5 f9 bc 78 31 7f 3e
       -0.23906109 -0.043341406 -0.030497432 0.24921215
000380 f2 a0 ad 3d 4c 03 84 3e 72 51 81 bd 95 cf 23 b9
       0.084779635 0.25783765 -0.063143626 -0.00015622222
000390 a7 5e d7 be 3e c3 25 3d 34 b0 bd 3d aa 35 b7 3d
       -0.42064402 0.0404694 0.09262124 0.089457825
0003a0 91 a7 87 3e 34 75 82 bd 56 31 a9 3c 37 85 09 be
       0.2649503 -0.06370011 0.020653408 -0.13429724
0003b0 ca 1c 01 3d 84 37 1b bd 8a b7 32 be 3a 77 16 3d
       0.031521596 -0.03789474 -0.17452827 0.036734797
0003c0 47 ba 27 be a3 99 ac 3d e3 7f f9 3c 14 7d cd be
       -0.16379653 0.084277414 0.030456489 -0.4013449
0003d0 99 2c bf 3d 20 e5 48 3c fc 05 9e 3c 76 cf 4f 3d
       0.09334678 0.012261659 0.019289963 0.05073496
0003e0 9b 95 a7 bd e6 13 db be 26 b8 75 be c9 59 5f 3a
       -0.08182832 -0.4278862 -0.23996028 0.0008520154
0003f0 0c 34 03 bd 67 c6 1e 3d 07 7d f0 3c f2 9b d0 3c
       -0.032032058 0.03876343 0.029356493 0.025464986

fc3.bias f4 [4]
000000 94 f2 85 3d 26 d2 a9 3d 23 53 05 3e 24 c9 ea 3c
       0.06540409 0.08292036 0.13019995 0.028660364
