policy_net2.pth (torch, 285296 bytes, 6 tensors)

fc1.weight f4 [256, 14]
0.1712263 -0.3209448 0.24683367 0.020442411 -0.008936478 0.010287179 -0.22854906 -0.40079126
0.097350776 0.40001294 -0.113210395 0.20540538 0.33425927 0.08913394 0.22816883 0.03680785
0.1447982 -0.104178645 -0.08658283 0.06725519 0.040224455 -0.43815896 0.17666811 -0.02608501
0.043452166 0.0065195765 -0.11643953 -0.07336387 -0.42539427 0.11133742 -0.24368526 -0.062173776
0.10019696 -0.16261734 -0.012900637 0.29651093 -0.072542265 0.07402446 -0.22384903 0.08789111
0.14770319 -0.0018611102 -0.32227394 -0.030997848 0.32986924 0.35813487 -0.18201047 0.048124634
-0.032905936 -0.044722166 0.19066149 0.22683406 0.089467436 -0.18943988 -0.35994768 0.049196526
-0.18513487 -0.21343061 -0.0655203 0.103455804 0.039723445 0.17470704 -0.07189236 -0.5065748
-0.07370226 0.30532882 0.23202458 0.29054055 0.41072327 -0.23194806 -0.045787554 -0.0031944867
-0.25799352 0.15426189 0.05883993 0.1769177 -0.18343243 0.28105447 -0.26282588 0.18051966
-0.004208788 -0.09390639 0.19302617 -0.043980148 -0.3164536 0.061102938 0.10455855 0.13342334
0.07442585 -0.11832011 -0.10008714 -0.19070289 -0.20218284 -0.104845524 0.053139623 0.040583026
-0.08783888 0.091197014 0.3274002 0.37824306 0.15100594 0.08093863 -0.05145 -0.048963334
-0.34554684 -0.2637415 -0.34185737 -0.12152672 0.2238711 0.073467165 -0.25098193 -0.37392536
-0.30924484 -0.21723586 -0.26225954 0.34211817 0.20125459 -0.1555449 0.20626327 -0.3536711
-0.26090324 0.10378443 -0.11727746 0.022442365 -0.105872825 0.15049082 -0.1488146 0.3502474
-0.31927323 0.050754353 -0.0042548515 -0.059697658 -0.2150882 -0.13962707 -0.16728473 -0.06152773
0.05561713 -0.11422171 -0.008500226 0.067193784 0.050984755 0.033943236 -0.061222695 -0.19940834
-0.13213047 -0.09344911 -0.14929026 -0.33177704 0.22768728 -0.036051117 0.08069482 -0.045973048
-0.34624413 0.07926605 -0.44320628 0.23192985 -0.100254506 0.25410917 0.011181111 -0.03151518
0.050270982 -0.1728047 0.20620014 0.057475485 0.21626161 -0.18742192 0.15831265 0.017196007
-0.1561045 0.17203952 -0.0023086749 0.015429276 0.010780097 -0.41948238 0.3215523 -0.20623827
-0.050845817 -0.17126499 0.09404084 0.2582664 -0.2936032 -0.9809732 0.23021439 0.28557375
-0.18696514 -0.18071604 0.12053944 -0.76401263 -0.23470001 0.24026547 0.1767389 -0.005105848
0.10489012 -0.018630438 0.008344039 -0.70653033 0.100403875 -0.29562694 0.02382768 0.088940345
0.10752624 -0.14920472 -0.096291415 0.16560414 -0.36815602 0.057014577 0.24086075 -0.1495643
-0.38796517 0.131104 -0.19392106 0.21320225 0.21308161 0.14729874 0.046517074 0.18312298
-0.33027738 0.3611993 0.12767471 0.1408404 0.059441842 -0.0066198716 -0.39192885 -0.15859213
-0.29908976 0.074165195 0.093764216 -0.023084378 -0.17398512 0.034190316 -0.31655726 -0.06802348
0.03970977 0.048235722 0.1802143 -0.18435617 -0.280306 -0.039162688 0.20143285 -0.15637274
0.12159727 0.012321768 0.10703699 0.055563934 -0.057001136 0.007413468 -0.23236424 0.068725914
0.0810004 -0.46228752 -0.056334306 -0.07353702 -0.14518192 -0.029070744 -0.13292533 -0.00851233
00000000: f255 2f3e e052 a4be f7c1 7c3e d876 a73c
00000010: 4e6a 12bc 8e8b 283c c408 6abe 8334 cdbe
00000020: d85f c73d 7fce cc3e dada e7bd ca55 523e
00000030: 0824 ab3e db8b b63d 17a5 693e d4c3 163d
00000040: fb45 143e 9d5b d5bd 5752 b1bd 17bd 893d
00000050: 66c2 243d 5f56 e0be 7ce8 343e 3bb0 d5bc
00000060: e6fa 313d 2ca2 d53b d977 eebd cc3f 96bd
00000070: 47cd d9be e004 e43d a188 79be eea9 7ebd
00000080: 1034 cd3d 2985 26be 325d 53bc 48d0 973e
00000090: 0a91 94bd 239a 973d ae38 65be 4100 b43d
000000a0: 813f 173e 7ff0 f3ba 1701 a5be 33ef fdbc
000000b0: 9fe4 a83e 745d b73e f460 3abe 561e 453d
000000c0: 60c8 06bd 972e 37bd c43c 433e 3047 683e
000000d0: b43a b73d 87fc 41be 104b b8be 4c82 493d
000000e0: ff93 3dbe 8e8d 5abe 822f 86bd a3e0 d33d
000000f0: 0db5 223d 67e6 323e 4d3c 93bd e3ae 01bf
00000100: 36f1 96bd 0f54 9c3e da97 6d3e bbc1 943e
00000110: 524a d23e cb83 6dbe bb8b 3bbd 985a 51bb
00000120: ba17 84be d4f6 1d3e 2302 713d ea29 353e
00000130: b6d5 3bbe 5fe6 8f3e 1d91 86be 25da 383e
00000140: dfe9 89bb fe51 c0bd a7a8 453e 8724 34bd
00000150: 3506 a2be 1347 7a3d cb22 d63d 21a0 083e
00000160: 946c 983d d051 f2bd 7dfa ccbd 9e47 43be
00000170: 0509 4fbe 40b9 d6bd efa8 593d 633a 263d
00000180: dfe4 b3bd 80c5 ba3d 00a1 a73e 13a9 c13e
00000190: 4da1 1a3e 27c3 a53d 3cbd 52bd c78d 48bd
000001a0: 84eb b0be 2009 87be ee07 afbe 00e3 f8bd
000001b0: 773e 653e f475 963d b480 80be 2573 bfbe
000001c0: 5755 9ebe 1473 5ebe e246 86be 1d2a af3e
000001d0: af15 4e3e 2a47 1fbe ae36 533e 6114 b5be
000001e0: 1c95 85be ee8c d43d 2a2f f0bd 0dd9 b73c
000001f0: dad3 d8bd 441a 1a3e db62 18be a153 b33e
00000200: c877 a3be cce3 4f3d 486c 8bbb 8885 74bd
00000210: 1540 5cbe 66fa 0ebe b04c 2bbe 8004 7cbd
00000220: cace 633d 12ed e9bd 8844 0bbc e59c 893d
00000230: 64d5 503d 1008 0b3d a6c4 7abd b331 4cbe
00000240: 364d 07be 3f62 bfbd 8cdf 18be aede a9be
00000250: db26 693e 56aa 13bd 5343 a53d 3c4e 3cbd
00000260: e946 b1be 3d56 a23d efeb e2be 057f 6d3e
00000270: 3c52 cdbd 991a 823e fb30 373c 1016 01bd
00000280: f2e8 4d3d b7f3 30be 2126 533e 6a6b 6b3d
00000290: af73 5d3e 88eb 3fbe b61c 223e a4de 8c3c
000002a0: dcd9 1fbe 212b 303e 234d 17bb 13cb 7c3c
000002b0: 019f 303c 65c6 d6be 81a2 a43e 2030 53be
000002c0: b443 50bd 1760 2fbe 7c98 c03d 7e3b 843e
000002d0: 2953 96be 0f21 7bbf 52bd 6b3e b936 923e
000002e0: ca73 3fbe a00d 39be 62dd f63d 5596 43bf
000002f0: 3355 70be 2708 763e 0bfb 343e f54e a7bb
00000300: a2d0 d63d dc9e 98bc 70b5 083c 2cdf 34bf
00000310: 8ca0 cd3d 6a5c 97be 4432 c33c 5b26 b63d
00000320: b836 dc3d 1fc9 18be 6f34 c5bd 2294 293e
00000330: f27e bcbe 1e88 693d 33a4 763e 6227 19be
00000340: 5fa3 c6be 2140 063e 3e93 46be b151 5a3e
00000350: 1132 5a3e 7bd5 163e b088 3e3d 9784 3b3e
00000360: 1e1a a9be 1def b83e 29bd 023e 7738 103e
00000370: 4a79 733d 82eb d8bb e6aa c8be fa65 22be
00000380: 4b22 99be ece3 973d 7407 c03d 731b bdbc
00000390: 2829 32be 250b 0c3d cb13 a2be e54f 8bbd
000003a0: b6a6 223d d292 453d 198a 383e ddc7 3cbe
000003b0: 4584 8fbe 0e69 20bd 6a44 4e3e 2d20 20be
000003c0: fd07 f93d 3ee1 493c 3636 db3d 0297 633d
000003d0: 067a 69bd adec f23b e4f0 6dbe 2cc0 8c3d
000003e0: 8ae3 a53d f3b0 ecbe cdbe 66bd 949a 96bd
000003f0: 92aa 14be c525 eebc 941d 08be 4d77 0bbc

fc1.bias f4 [256]
-0.16025797 0.1457924 -0.17199935 -0.0044377726 0.044126544 -0.027177127 0.052522246 -0.30397052
-0.19878972 0.113757625 0.13774231 -0.12739591 -0.13510104 -0.21471499 0.10233921 0.06327183
0.21964125 0.15198694 0.083480686 0.15993065 0.1448008 0.083418965 -0.18562143 0.17027794
0.06475343 -0.13568972 0.27989244 -0.14121182 0.0043948614 -0.14039078 -0.06438959 -0.0005276641
0.07993766 0.054456707 -0.1505154 -0.12689959 -0.09814006 0.17168769 -0.022613153 0.18678845
0.119129725 0.041100755 0.021127706 0.002983091 0.26033646 -0.039944194 -0.3074506 -0.19276188
0.103024885 -0.12546805 0.10494765 -0.08884698 -0.14127873 -0.089119956 -0.021326737 -0.21200986
-0.12537248 -0.00039833534 -0.36380458 -0.21221696 -0.25382063 -0.033773024 0.037187636 -0.20096031
0.12156402 -0.30943158 0.0531156 -0.064566426 -0.24223584 -0.050412804 -0.17181739 -0.089901105
0.09336752 0.23226692 -0.08570219 0.07090857 0.19375104 0.16729726 -0.013982877 -0.37116605
-0.22986603 0.16237205 0.05189456 0.019219581 -0.04850589 0.1365971 0.062062148 0.08357364
0.21001609 -0.05364194 -0.077492684 0.07622581 -0.08831123 -0.12282626 -0.21703228 -0.13244334
0.11252949 -0.15578458 -0.109805435 0.036913544 -0.10090149 -0.25066045 0.16770338 -0.12876546
-0.0840291 0.14435372 -0.031245071 0.23017667 -0.18769501 0.15013784 -0.16953653 0.070272475
-0.10585346 -0.12974691 -0.25124598 0.039617494 -0.32759023 0.07707588 -0.06867745 0.0903729
-0.23648316 0.1668486 -0.29735094 0.13263352 0.017734148 -0.15452605 -0.08233127 0.1120754
-0.065528676 0.13490973 -0.07013659 -0.13073568 0.07004841 -0.27391317 -0.020200685 -0.34721988
-0.13166365 -0.0074529042 -0.14329581 -0.25776786 0.14492825 0.0389386 -0.011277123 0.020536492
-0.24797893 0.116068035 -0.14252956 0.22991106 0.067656435 -0.06120844 -0.085182905 0.023948029
-0.010151738 -0.040513948 0.098430686 0.12639046 0.13478157 -0.15291911 0.07023834 -0.05052072
-0.30483902 -0.14831485 -0.15761633 0.17102581 0.044934805 -0.1682687 0.12357481 -0.3139565
-0.22334702 0.04658393 0.18767026 0.021021167 -0.09827294 0.08341742 -0.33389708 0.30939096
-0.053211156 0.01262971 -0.2614882 -0.34998482 -0.19472276 -0.00068712496 0.07361515 -0.058093857
-0.06376302 -0.23736684 0.14618692 0.2994606 0.115146145 -0.15807724 0.0965843 0.16325387
0.042512566 -0.02218327 -0.18764098 0.15669473 -0.07051348 -0.24453703 -0.04831634 -0.097434
-0.022615796 -0.11891818 -0.07636485 -0.1334905 -0.25900975 -0.20215309 -0.20849843 0.09556406
-0.02790772 0.081203 -0.05035765 0.052539237 0.0065182513 -0.23311381 -0.20539244 0.19634329
-0.1038634 -0.24321513 -0.1144086 -0.2538556 -0.29685175 0.022465965 -0.093632095 0.021738464
-0.13614126 -0.2139104 -0.005576592 -0.21856974 0.08183531 -0.16549586 0.065570466 -0.22739488
-0.23603241 0.024778591 0.21472466 -0.20191646 -0.29123348 -0.10059295 0.15158588 0.116203256
-0.26301685 -0.19132578 0.124342114 -0.201068 -0.19147958 -0.10701532 -0.11020877 0.1220481
0.023891643 0.028240085 -0.17773548 0.09630903 -0.019434094 -0.15706286 -0.3105232 -0.22834846
00000000: aa1a 24be 9a4a 153e 9920 30be bc6a 91bb
00000010: 09be 343d 91a2 debc 9121 573d 06a2 9bbe
00000020: 888f 4bbe c2f9 e83d 520c 0d3e 1374 02be
00000030: ed57 0abe 3fde 5bbe 3897 d13d a994 813d
00000040: a3e9 603e 77a2 1b3e ecf7 aa3d dcc4 233e
00000050: a946 143e 90d7 aa3d 8b13 3ebe 575d 2e3e
00000060: 729d 843d 3ff2 0abe 104e 8f3e d599 10be
00000070: c502 903b 9ac2 0fbe b0de 83bd f052 0aba
00000080: 5bb6 a33d ff0d 5f3d b620 1abe f7f1 01be
00000090: a8fd c8bd e6ce 2f3e 383f b9bc 7945 3f3e
000000a0: 49fa f33d 4459 283d 0314 ad3c f67f 433b
000000b0: d24a 853e 869c 23bd 2a6a 9dbe 5f63 45be
000000c0: b6fe d23d b27a 00be cbee d63d 68f5 b5bd
000000d0: 5fab 10be 8684 b6bd 69b5 aebc 1d19 59be
000000e0: a561 00be aad7 d0b9 9844 babe 674f 59be
000000f0: c7f4 81be 9555 0abd 1052 183d 8ac8 4dbe
00000100: 8ff6 f83d d16d 9ebe be8f 593d 673b 84bd
00000110: ac0c 78be a87d 4ebd e6f0 2fbe 121e b8bd
00000120: 7837 bf3d 61d7 6d3e a184 afbd 8338 913d
00000130: ac66 463e f94f 2b3e 7018 65bc 7a09 bebe
00000140: 0062 6bbe dc44 263e 648f 543d 6272 9d3c
00000150: 1dae 46bd 1ce0 0b3e e134 7e3d a828 ab3d
00000160: 750e 573e a7b7 5bbd 7cb4 9ebd 471c 9c3d
00000170: 85dc b4bd 568c fbbd b63d 5ebe 3a9f 07be
00000180: dc75 e63d fe85 1fbe ace1 e0bd a832 173d
00000190: 71a5 cebd 9156 80be 6fba 2b3e 18db 03be
000001a0: 7317 acbd 76d1 133e aaf5 ffbc 6fb3 6b3e
000001b0: 1f33 40be bcbd 193e fc9a 2dbe 04eb 8f3d
000001c0: b3c9 d8bd 60dc 04be 50a3 80be f445 223d
000001d0: e8b9 a7be f5d9 9d3d c3a6 8cbd 6d15 b93d
000001e0: a428 72be 5cda 2a3e 623e 98be 15d1 073e
000001f0: 3447 913c 143c 1ebe 4c9d a8bd ca87 e53d
00000200: e633 86bd c725 0a3e c6a3 8fbd 93df 05be
00000210: 8a75 8f3d 593e 8cbe e87b a5bc cec6 b1be
00000220: d6d2 06be 7e37 f4bb 23bc 12be 26fa 83be
00000230: 1268 143e 157e 1f3d afc3 38bc 253c a83c
00000240: 30ee 7dbe 14b5 ed3d 45f3 11be ce6d 6b3e
00000250: 758f 8a3d b4b5 7abd 6074 aebd a82e c43c
00000260: 7a53 26bc f4f1 25bd 0796 c93d 806c 013e
00000270: 2e04 0a3e d496 1cbe 1ed9 8f3d d1ee 4ebd
00000280: dc13 9cbe d9df 17be 2d66 21be 6421 2f3e
00000290: 8f0d 383d a14e 2cbe ca14 fd3d e8be a0be
000002a0: 15b5 64be cace 3e3d a22c 403e 9534 ac3c
000002b0: 5343 c9bd c1d6 aa3d 8ff4 aabe 7e68 9e3e
000002c0: f1f3 59bd d8ec 4e3c c8e1 85be 3631 b3be
000002d0: 6765 47be 2d20 34ba 8ac3 963d d3f3 6dbd
000002e0: 3096 82bd 4b10 73be 06b2 153e e652 993e
000002f0: bed1 eb3d 00df 21be fdcd c53d 062c 273e
00000300: a821 2e3d b0b9 b5bc f524 40be 9574 203e
00000310: 5f69 90bd ea67 7abe 5be7 45bd 7a8b c7bd
00000320: c344 b9bc 608b f3bd 2d65 9cbd bcb1 08be
00000330: ed9c 84be 3801 4fbe 9d80 55be 17b7 c33d
00000340: bb9e e4bc c24d a63d d343 4ebd 6233 573d
00000350: 0e97 d53b 63b5 6ebe 6552 52be 370e 493e
00000360: 56b6 d4bd 630d 79be 0e4f eabd 5cf9 81be
00000370: f4fc 97be 8b0a b83c 2fc2 bfbd dd14 b23c
00000380: 9d68 0bbe 540b 5bbe d8bb b6bb bfd0 5fbe
00000390: 4599 a73d bf77 29be cf49 863d 34da 68be
000003a0: 7bb2 71be 79fc ca3c c8e0 5b3e 30c3 4ebe
000003b0: 8e1c 95be ad03 cebd 5439 1b3e f9fb ed3d
000003c0: 25aa 86be e8ea 43be 14a7 fe3d c5e4 4dbe
000003d0: 3913 44be d92a dbbd 23b5 e1bd 5bf4 f93d
000003e0: 68b8 c33c c057 e73c 4a00 36be ab3d c53d
000003f0: 4034 9fbc 16d5 20be e6fc 9ebe 2ed4 69be

fc2.weight f4 [256, 256]
-0.015177018 -0.067914695 -0.05474511 -0.07011946 0.007991086 -0.018993665 -0.0071875113 0.06267269
0.048888054 -0.05941364 -0.026502015 0.027161976 -0.03251144 -0.037141245 0.008685163 -0.00020701265
0.054424424 0.02679489 -0.07411839 0.054676466 -0.03247691 -0.012023317 0.019227913 -0.004584657
-0.007955712 -0.00962196 -0.026599506 -0.059866816 -0.05844065 0.0063501555 -0.0682527 -0.0009118225
-0.049592666 0.024869163 -0.07651556 -0.013457026 0.027784305 -0.026171003 0.0063126786 0.024870958
0.030401299 0.044628646 -0.060693026 -0.051146377 -0.008382025 0.015491607 -0.02110429 -0.060407132
-0.013751188 -0.0788275 -0.01645139 -0.03206354 -0.060099654 -0.04764893 -0.051378414 -0.010221426
-0.02262737 -0.08102736 0.0070849443 0.0170709 -0.022539416 -0.010819594 0.022441287 0.04829599
0.018977195 -0.04946534 -0.036416106 0.015001001 -0.018350061 -0.019840011 0.00056640635 -0.004674025
-0.064722575 -0.04777338 -0.07191186 0.028438931 -0.064831875 -0.006219971 -0.017982341 0.0006743083
-0.0196034 0.025892941 -0.08584044 -0.0705067 -0.008396877 0.0251502 -0.0740667 -0.09314231
-0.05572666 -0.03716145 0.028612832 -0.072846614 0.022219604 -0.0041556135 -0.0024221241 -0.04006948
-0.049271062 -0.054604806 -0.059282012 -0.08352254 0.05035404 -0.011573571 0.027040768 0.00018685394
-0.05798293 -0.049576208 0.048320275 0.011961043 0.03774377 -0.07004166 -0.06899377 0.0044750986
-0.03925401 -0.081349164 -0.036948275 0.010849984 -0.09158176 -0.0021371844 0.04437411 0.023593782
0.005511952 -0.069219254 -0.059176628 -0.013529436 0.029650964 0.05626497 -0.0019407602 -0.0069663576
-0.0462987 -0.046671942 -0.056655508 -0.044587236 -0.07187483 -0.03334969 -0.041447543 -0.012056353
0.023977213 0.030540284 0.009780005 -0.029458 -0.011116172 -0.041827343 -0.015811816 -0.05758292
-0.014270313 -0.07327059 -0.051188447 -0.058019344 0.019274428 -0.065264806 0.035645094 -0.034241825
-0.032019176 -0.064784974 -0.038759384 0.022985911 0.026731668 0.008730438 -0.02308721 -0.05858532
-0.024438646 0.04519571 -0.03656046 -0.012724578 -0.026776282 -0.05581509 -0.01114323 -0.03261003
-0.053709187 0.0021070335 -0.043476284 0.044403918 -0.06136856 -0.017936753 0.050618403 -0.04894976
0.030315652 0.04093762 0.011530377 -0.005388961 -0.021617591 0.0039842403 -0.011221066 -0.025755439
-0.029607125 0.0033347413 -0.05674015 -0.015989708 0.03475212 -0.07276535 -0.09083884 0.038148865
0.01228635 0.019276109 0.0027512226 -0.030697603 -0.06967229 -0.054467767 0.04380717 -0.0061315275
-0.0010596934 0.06669268 0.014481668 -0.052890304 0.0010669604 -0.030428117 0.031687528 -0.05530884
-0.020536065 -0.050015315 -0.04328153 0.012164426 0.020601192 0.023526749 0.011660658 -0.0040975683
0.0498444 -0.06596006 -0.06844804 -0.0033462879 -0.033490825 -0.054887842 -0.054901686 0.0035998633
-0.047791906 -0.021284351 -0.035927538 -0.012199681 0.012971313 0.015521294 -0.075518 -0.06983657
-0.021279056 0.052748077 -0.0833368 0.023197317 0.0428249 0.0151571 -0.08238177 -0.09755356
-0.014067389 -0.039671138 -0.028935922 -0.0026642026 0.0054110494 0.008379277 -0.026115352 0.006720408
-0.048977073 -0.06806573 -0.004318942 -0.07548972 0.0114039555 0.008314012 0.018002523 0.026508555
00000000: 07a9 78bc dc16 8bbd 693c 60bd cb9a 8fbd
00000010: 0bed 023c 9a98 9bbc 3785 ebbb 8a5a 803d
00000020: d73e 483d b85b 73bd c11a d9bc cb82 de3c
00000030: b72a 05bd 6b21 18bd 374c 0e3c 8911 59b9
00000040: 25ec 5e3d f580 db3c 62cb 97bd 6ef4 5f3d
00000050: 8206 05bd 72fd 44bc db83 9d3c e43a 96bb
00000060: ad58 02bc 6da5 1dbc 35e7 d9bc e836 75bd
00000070: 775f 6fbd f714 d03b 12c8 8bbd 5f07 6fba
00000080: ae21 4bbd 6aba cb3c 31b4 9cbd dc7a 5cbc
00000090: e99b e33c 9264 d6bc 96da ce3b 2ebe cb3c
000000a0: 250c f93c 87cc 363d 4099 78bd dd7e 51bd
000000b0: c354 09bc 82d0 7d3c e7e2 acbc 786d 77bd
000000c0: aa4c 61bc 5070 a1bd 11c5 86bc 0f55 03bd
000000d0: 0e2b 76bd 862b 43bd 2c72 52bd c577 27bc
000000e0: 095d b9bc acf1 a5bd d228 e83b 46d8 8b3c
000000f0: 95a4 b8bc ab44 31bc cad6 b73c 04d2 453d
00000100: 1076 9b3c 2b9c 4abd 0e29 15bd c2c6 753c
00000110: de52 96bc 8587 a2bc e37a 143a 9028 99bb
00000120: 458d 84bd 05ae 43bd 8646 93bd c3f8 e83c
00000130: 93c6 84bd e6d0 cbbb b44f 93bc 10c4 303a
00000140: 4f97 a0bc 6f1d d43c 1dcd afbd d165 90bd
00000150: 0e93 09bc cb07 ce3c 48b0 97bd 65c1 bebd
00000160: a341 64bd 9b36 18bd 7565 ea3c 9b30 95bd
00000170: e305 b63c d02b 88bb 80bc 1ebb e51f 24bd
00000180: 74d0 49bd 4aa9 5fbd b2d1 72bd de0d abbd
00000190: 0a40 4e3d 139f 3dbc 9a84 dd3c 39ee 4339
000001a0: 827f 6dbd 6c10 4bbd 7beb 453d 40f8 433c
000001b0: 3699 1a3d 0072 8fbd 9b4c 8dbd d9a3 923b
000001c0: d0c8 20bd 649a a6bd 1357 17bd 22c4 313c
000001d0: 388f bbbd 0110 0cbb a0c1 353d bf47 c13c
000001e0: 9b9d b43b d3c2 8dbd 3163 72bd 91aa 5dbc
000001f0: 94e6 f23c 1976 663d 1b61 feba 0b46 e4bb
00000200: b5a3 3dbd 142b 3fbd 9b0f 68bd 1ba1 36bd
00000210: 1c33 93bd af99 08bd e6c4 29bd 0288 45bc
00000220: dc6b c43c 9e2f fa3c 503c 203c e751 f1bc
00000230: 9b20 36bc 2653 2bbd c887 81bc 11dc 6bbd
00000240: 08ce 69bc e40e 96bd faaa 51bd b1a5 6dbd
00000250: 68e5 9d3c 8ea9 85bd 9700 123d 2841 0cbd
00000260: 8a26 03bd fcad 84bd 29c2 1ebd f34c bc3c
00000270: 5ffc da3c 1c0a 0f3c 6321 bdbc 29f7 6fbd
00000280: 8e33 c8bc 231f 393d 6cc0 15bd c07a 50bc
00000290: ef59 dbbc 5d9e 64bd 1892 36bc 1892 05bd
000002a0: 2afe 5bbd 2816 0a3b 3014 32bd e2e0 353d
000002b0: 995d 7bbd 19f0 92bc 3e55 4f3d 8b7f 48bd
000002c0: 8858 f83c 35ae 273d e8e9 3c3c e295 b0bb
000002d0: 6017 b1bc 3b8e 823b 90d8 37bc 12fd d2bc
000002e0: a48a f2bc ad8b 5a3b 5c68 68bd d9fc 82bc
000002f0: 3d58 0e3d 0006 95bd b709 babd fc41 1c3d
00000300: b04c 493c eee8 9d3c db4d 343b 8a79 fbbc
00000310: 58b0 8ebd 9819 5fbd 266f 333d fbea c8bb
00000320: 69e5 8aba 2c96 883d 8544 6d3c 81a3 58bd
00000330: 40d9 8b3a 6344 f9bc c8ca 013d 868b 62bd
00000340: 403b a8bc dcdc 4cbd f947 31bd 4d4d 473c
00000350: d5c3 a83c 2bbb c03c 580c 3f3c e544 86bb
00000360: a429 4c3d 1116 87bd 7c2e 8cbd 654d 5bbb
00000370: ad2d 09bd 13d2 60bd 97e0 60bd afeb 6b3b
00000380: 72c1 43bd 855c aebc c128 13bd 2ce1 47bc
00000390: a185 543c 074d 7e3c 2ea9 9abd 7a06 8fbd
000003a0: 6a51 aebc 5e0e 583d 7cac aabd 4d08 be3c
000003b0: 2a69 2f3d 7c55 783c c6b7 a8bd 29ca c7bd
000003c0: e87a 66bc 347e 22bd 070b edbc e799 2ebb
000003d0: 2c4f b13b 3c49 093c ddef d5bc de36 dc3b
000003e0: 2f9c 48bd 0c66 8bbd e985 8dbb 5b9a 9abd
000003f0: a8d7 3a3c 7e37 083c 077a 933c 7828 d93c

fc2.bias f4 [256]
-0.081467584 -0.009436407 -0.056644425 0.03009122 0.11476682 -0.08412184 -0.01823094 -0.11780068
0.011102509 0.06500676 0.028601123 -0.10242512 -0.0584869 -0.060597416 0.012902608 -0.021485563
-0.00086213934 0.018147612 -0.017582458 -0.073637225 -0.031955406 -0.14338592 -0.071848325 0.01613257
0.07178353 -0.020790163 0.026250597 -0.0131109115 -0.031913415 -0.011362276 0.06483933 -0.02147509
0.009038372 -0.06483144 0.081109695 0.18124977 0.05785632 0.035735525 -0.07314269 0.086576656
-0.02002708 -0.013359007 0.006797714 -0.10814855 -0.0014102949 -0.029452918 0.08267746 -0.089155324
-0.11559929 -0.075701624 -0.026856301 -0.0033153486 -0.035244476 0.022844339 0.07952609 -0.03581209
-0.03173308 0.09282703 -0.04367779 0.02729393 0.0063033137 -0.1224571 -0.0349905 -0.10950023
0.00865885 -0.086797096 -0.10244897 0.072646104 -0.0962609 -0.07530714 -0.020888992 -0.032046225
-0.05883984 -0.0064007626 0.072210476 -0.060521204 -0.05699709 0.031231211 -0.0127577605 -0.10991395
0.047027852 0.009096928 -0.13927425 -0.0318264 0.024425356 0.017926458 0.02626433 -0.03816921
-0.0059617036 -0.023710482 -0.01424138 -0.006412175 -0.016778007 -0.054736897 -0.008397175 0.08576918
-0.027638506 -0.04235909 0.06393617 0.03424867 -0.044091757 0.025924241 -0.02171393 0.055479214
-0.08810741 0.0015577335 -0.039387144 -0.0033199843 -0.0009762637 0.059352927 -0.030238012 0.116298325
-0.062469836 0.05659371 0.07897426 0.055574164 -0.05914088 -0.009927062 -0.07763475 -0.10275582
-0.0773322 -0.06506564 -0.052249644 -0.013994576 -0.071432434 -0.03292056 -0.05002104 -0.08903205
0.035981663 -0.052188743 0.010978087 -0.008411672 0.0075173047 -0.031829305 -0.09406944 -0.060733687
0.01578134 0.05004371 -0.0013936406 0.10804705 -0.05760696 -0.026803447 -0.014841038 0.029402416
-0.057210036 0.041449185 -0.094806455 0.025302945 0.096246414 -0.05779848 0.110013805 -0.031279754
-0.013357372 0.008522228 -0.010350126 0.033447668 0.014300807 -0.06354714 -0.009347409 0.042796426
-0.063597634 -0.07043257 -0.060287237 0.03319315 -0.05490132 -0.0264388 -0.017596928 -0.074680135
0.061439406 -0.059871327 -0.052180514 0.010318764 0.053300224 -0.057622653 -0.08950383 -0.023551686
-0.0694115 -0.047090817 -0.0013953025 0.083466925 -0.016171725 -0.049245432 -0.033781886 0.08313792
-0.08658142 -0.07163496 -0.023566855 -0.062254716 -0.07414192 -0.047908965 -0.07764478 -0.07765771
-0.07789565 -0.06276725 -0.037059866 -0.08643226 0.074183345 -0.061815586 0.01696107 -0.040486164
-0.0088451 -0.024065679 -0.078457735 0.15315379 -0.09833096 -0.015966382 -0.030547 0.061913136
-0.01784124 -0.06709771 0.10310255 0.0010431214 -0.025061417 -0.080438726 0.045374956 0.052101474
-0.033069834 -0.099576816 -0.0053802067 -0.055950977 -0.094219826 -0.0152903795 -0.122593425 0.0367204
-0.03767598 0.033185773 0.052349117 -0.056262046 0.069516465 -0.065336615 -0.082895145 0.067818165
-0.04893617 -0.019938178 0.011648353 0.03501368 -0.018173702 -0.052430153 -0.0029378945 -0.0313958
-0.05582641 -0.026060762 -0.045737658 0.02245277 -0.025658479 -0.102321215 -0.017327266 0.037519764
-0.07017277 -0.040496934 -0.10727455 -0.057362143 0.01750659 -0.08028922 0.0696385 0.028561851
00000000: 7ad8 a6bd 299b 1abc fc03 68bd dd81 f63c
00000010: de0a eb3d 1248 acbd 0d59 95bc 7c41 f1bd
00000020: 4ce7 353c 4422 853d e74c ea3c 43c4 d1bd
00000030: f68f 6fbd ff34 78bd 7665 533c 7e02 b0bc
00000040: 3101 62ba 4daa 943c 1609 90bc 1dcf 96bd
00000050: ace3 02bd c2d3 12be 3725 93bd 7428 843c
00000060: 3e03 933d 2250 aabc 7e0b d73c 26cf 56bc
00000070: a4b7 02bd d728 3abc 7cca 843d 87ec afbc
00000080: ae15 143c 59c6 84bd d71c a63d 8a99 393e
00000090: c0fa 6c3d 6a5f 123d d6cb 95bd 1a4f b13d
000000a0: d50f a4bc bddf 5abc 5cbf de3b fd7c ddbd
000000b0: a5d9 b8ba 3f47 f1bc cd52 a93d 1197 b6bd
000000c0: 52bf ecbd 7409 9bbd bf01 dcbc 5246 59bb
000000d0: 835c 10bd 0d24 bb3c 93de a23d b3af 12bd
000000e0: 8cfa 01bd 191c be3d 7be7 32bd 8597 df3c
000000f0: 078c ce3b caca fabd 3352 0fbd a841 e0bd
00000100: d9dd 0d3c adc2 b1bd c4d0 d1bd 7bc7 943d
00000110: 6f24 c5bd a13a 9abd 641f abbc e742 03bd
00000120: 0b02 71bd 7dbd d1bb 16e3 933d 15e5 77bd
00000130: c875 69bd 99d8 ff3c ed05 51bc 911a e1bd
00000140: 47a0 403d 480b 153c e99d 0ebe 665c 02bd
00000150: af17 c83c 82da 923c 4b28 d73c 5157 1cbd
00000160: 655a c3bb 7c3c c2bc ad54 69bc 391d d2bb
00000170: 0872 89bc cc33 60bd 4e94 09bc c0a7 af3d
00000180: 266a e2bc ba80 2dbd f7f0 823d 5548 0c3d
00000190: 8f99 34bd 135f d43c 69e1 b1bc 2c3e 633d
000001a0: a871 b4bd dd2c cc3a 6a54 21bd 1894 59bb
000001b0: f3eb 7fba 0e1c 733d b5b5 f7bc d12d ee3d
000001c0: 5fe0 7fbd cece 673d 42bd a13d bca1 633d
000001d0: b53d 72bd 1ea5 22bc f8fe 9ebd a571 d2bd
000001e0: 5860 9ebd 2241 85bd b903 56bd 8249 65bc
000001f0: 2b4b 92bd b6d7 06bd dde2 4cbd 6f56 b6bd
00000200: 8261 133d ddc3 55bd 6fdd 333c 1cd1 09bc
00000210: b953 f63b 725f 02bd 7ba7 c0bd e3c3 78bd
00000220: de47 813c a2fa 4c3d d2aa b6ba c647 dd3d
00000230: 47f5 6bbd e792 dbbc d327 73bc 56dd f03c
00000240: 1255 6abd 9fc6 293d e329 c2bd 1f48 cf3c
00000250: d71c c53d 19be 6cbd eb4e e13d 331f 00bd
00000260: e1d8 5abc d1a0 0b3c 9393 29bc 6c00 093d
00000270: ef4d 6a3c 0125 82bd e025 19bc 4e4b 2f3d
00000280: 7a3f 82bd f43e 90bd c0ef 76bd 8af5 073d
00000290: 35e0 60bd 2f96 d8bc 6f27 90bc e6f1 98bd
000002a0: e3a7 7b3d a33b 75bd 3cbb 55bd 0810 293c
000002b0: 5651 5a3d bb05 6cbd c94d b7bd 77ef c0bc
000002c0: 9e27 8ebd 4de2 40bd 95e2 b6ba b5f0 aa3d
000002d0: 917a 84bc 94b5 49bd e05e 0abd 3744 aa3d
000002e0: 9951 b1bd 5ab5 92bd 470f c1bc cdfe 7ebd
000002f0: b8d7 97bd 313c 44bd 3a04 9fbd 010b 9fbd
00000300: c187 9fbd 1e8c 80bd 16cc 17bd 6603 b1bd
00000310: 70ed 973d 5732 7dbd f1f1 8a3c d2d4 25bd
00000320: 0aeb 10bc 6325 c5bc 73ae a0bd 59d4 1c3e
00000330: be61 c9bd eecb 82bc b43d fabc a198 7d3d
00000340: cb27 92bc 866a 89bd 6e27 d33d 59b9 883a
00000350: 9a4d cdbc 0fbd a4bd 17db 393d 5b68 553d
00000360: 3c74 07bd eeee cbbd 724c b0bb da2c 65bd
00000370: 53f6 c0bd 8084 7abc 4312 fbbd 2168 163d
00000380: 2152 1abd ceed 073d 076c 563d 0873 66bd
00000390: a65e 8e3d 34cf 85bd eec4 a9bd 40e4 8a3d
000003a0: 4b71 48bd 6455 a3bc bcd8 3e3c 816a 0f3d
000003b0: 04e1 94bc 00c1 56bd b189 40bb e298 00bd
000003c0: 3caa 64bd 617d d5bc 6957 3bbd dfee b73c
000003d0: bb31 d2bc c98d d1bd e9f1 8dbc 53ae 193d
000003e0: beb6 8fbd 1de0 25bd c2b2 dbbd 91f4 6abd
000003f0: fb69 8f3c ad6e a4bd a19e 8e3d 8bfa e93c

fc3.weight f4 [4, 256]
0.013086073 0.22941828 0.045030184 -0.03407361 0.06803237 -0.047618844 0.055293746 0.12739755
0.042797357 -0.1270718 0.019359834 -0.03483843 -0.04870915 -0.006454839 0.01298037 -0.023677893
-0.055003293 0.15271077 0.06240933 -0.019837156 -0.0027286112 -0.028822856 -0.014041045 -0.16115169
-0.15841958 -0.008097164 -0.054928422 0.016160883 0.04989935 0.0059842058 -0.039322235 -0.23502035
-0.0060207746 -0.023680668 -0.00918813 0.042105366 0.063103184 0.042553455 -0.29891872 0.100948386
-0.010926445 0.025238888 0.018725006 -0.118186 0.12957513 -0.15233399 -0.2243674 -0.0033922202
0.012340799 -0.0006984505 0.008961941 0.023027433 -0.105177164 0.033404794 0.08202044 0.022712646
-0.055695735 0.11858659 -0.017540155 0.046724997 0.07161768 0.027248614 0.05759336 -0.13517095
-0.01032232 0.013280096 -0.121425204 0.08141911 -0.018231496 -0.027363596 0.1318231 -0.016321542
-0.052814513 -0.007078778 -0.014673883 0.00767247 -0.0021035522 0.06003452 -0.13742387 0.08990524
0.032475002 0.012493301 0.17860645 0.030847022 0.012368768 -0.025184337 -0.059620462 0.02689745
0.013763224 0.05010902 0.061866507 -0.19338986 -0.04774987 0.06669987 -0.35997596 -0.35344562
0.006564679 -0.106318705 -0.09755584 0.15943363 -0.0031512629 0.3311582 -0.01804715 0.056937672
0.0049068406 -0.21308978 0.0010155796 -0.020276312 -0.09793108 0.14861427 -0.155161 -0.14964274
-0.052848473 -0.087439016 0.00078345847 0.12812577 -0.10151418 -0.05429162 0.03085825 0.046496436
-0.035436127 -0.02569597 -0.010309763 -0.00337578 -0.25187245 0.03759418 -0.021127975 0.080397576
-0.0059396275 -0.0053155683 0.079018615 0.069042645 -0.061486315 -0.119951725 -0.06386437 0.12160864
-0.0031935188 0.108198196 -0.12956576 0.016514452 0.027001865 0.030778492 -0.02757395 0.046272334
-0.033809062 0.05410571 0.07800103 -0.05846608 0.11676407 0.021118764 0.05036724 0.055377517
0.0039003363 -0.05556367 0.014296382 0.011332248 -0.027116876 -0.2069169 -0.040572986 0.045939807
0.029367015 -0.023706628 0.048137892 -0.015510755 0.008175626 0.04478222 0.063665904 0.18454435
0.35368118 -0.042079836 0.10542639 -0.041952543 0.04553383 0.017245743 0.062097415 -0.059917975
-0.0010764456 -0.011242819 -0.028782537 0.20179352 0.06875046 0.03087432 0.01464049 -0.038315896
0.12307406 0.19589168 -0.21519049 0.116757326 0.0062309355 -0.15621245 -0.28536952 -0.17224103
0.08239679 -0.19435318 -0.0715398 0.025082994 0.20628284 -0.033726342 0.046491813 0.13799612
-0.0019201913 0.044258032 -0.008389403 0.03207488 0.041334897 0.11206706 -0.0049065696 -0.019381564
0.0039468547 0.10968489 0.08980137 -0.03956353 0.067713715 0.055201836 -0.015871892 0.050051432
0.0040117106 -0.15014608 0.108403176 -0.0239904 -0.00034032075 -0.021811303 -0.16938803 -0.103887826
-0.0864469 0.30519125 0.026045121 0.15001005 -0.22554436 -0.025822338 -0.030694492 0.1357656
0.026279993 -0.018297782 0.10621609 -0.08551951 -0.009221698 0.083510496 -0.13522553 0.24338774
0.052492972 0.0008018185 0.101212844 -0.025865326 0.37842748 0.10474162 0.12254572 0.20750552
0.021046799 -0.14740868 0.0341852 -0.07278324 -0.24502237 -0.021479083 0.14592563 0.032355588
00000000: f866 563c a0ec 6a3e 9271 383d c590 0bbd
00000010: 8e54 8b3d fa0b 43bd b27b 623d 8174 023e
00000020: 484c 2f3d 1c1f 02be 8498 9e3c beb2 0ebd
00000030: 3f83 47bd 1d83 d3bb 9eab 543c 24f8 c1bc
00000040: 224b 61bd 3660 1c3e eda0 7f3d 8881 a2bc
00000050: 80d2 32bb e91d ecbc 690c 66bc f304 25be
00000060: be38 22be f8a9 04bc a0fc 60bd d463 843c
00000070: 4363 4c3d 2817 c43b 5a10 21bd 2da9 70be
00000080: eb49 c5bb f6fd c1bc cf89 16bc ad76 2c3d
00000090: 3e3c 813d 884c 2e3d e00b 99be 07be ce3d
000000a0: d504 33bc c9c1 ce3c 2f65 993c 800b f2bd
000000b0: 58af 043e 71fd 1bbe 91c0 65be 0350 5ebb
000000c0: 1031 4a3c 3818 37ba 1bd5 123c 07a4 bc3c
000000d0: 2067 d7bd 77d3 083d 55fa a73d df0f ba3c
000000e0: 3621 64bd 87dd f23d 5fb0 8fbc b662 3f3d
000000f0: 4aac 923d 7c38 df3c 04e7 6b3d 416a 0abe
00000100: f31e 29bc c394 593c c7ad f8bd 10bf a63d
00000110: 385a 95bc 9f29 e0bc a2fc 063e c1b4 85bc
00000120: 0854 58bd 18f5 e7bb ba6a 70bc 5869 fb3b
00000130: c0db 09bb c2e6 753d d8b8 0cbe 3d20 b83d
00000140: 8204 053d b4b0 4c3c 9ce4 363e e5b2 fc3c
00000150: 60a6 4a3c 624f cebc 9634 74bd 0b58 dc3c
00000160: 257f 613c 1e3f 4d3d bc67 7d3d fe07 46be
00000170: 5e95 43bd f199 883d c54e b8be d3f6 b4be
00000180: 851c d73b 9fbd d9bd 5bcb c7bd 9242 233e
00000190: 6b85 4ebb 918d a93e 9ed7 93bc 7a37 693d
000001a0: 90c9 a03b 3534 5abe 321d 853a 821a a6bc
000001b0: 1790 c8bd 572e 183e 86e2 1ebe f23b 19be
000001c0: a477 58bd 3a13 b3bd 0261 4d3a 6733 033e
000001d0: abe6 cfbd e460 5ebd 71ca fc3c 0c73 3e3d
000001e0: 7925 11bd 5b80 d2bc 48ea 28bc 313c 5dbb
000001f0: 6df5 80be 5bfc 193d 9314 adbc 7ca7 a43d
00000200: 35a1 c2bb 382e aebb 83d4 a13d 3b66 8d3d
00000210: 13d9 7bbd 40a9 f5bd 53cb 82bd f30d f93d
00000220: 5b4a 51bb 0497 dd3d e3ac 04be 5149 873c
00000230: 0433 dd3c 2d23 fc3c c4e2 e1bc 0f88 3d3d
00000240: 5f7b 0abd f39d 5d3d 01bf 9f3d 217a 6fbd
00000250: 0022 ef3d 4201 ad3c e14d 4e3d 89d3 623d
00000260: c99c 7f3b bb96 63bd 5f3b 6a3c e5aa 393c
00000270: 3624 debc 06e2 53be dc2f 26bd 612b 3c3d
00000280: 1893 f03c 6734 c2bc 3d2c 453d d220 7ebc
00000290: 10f3 053c 906d 373d 4563 823d 32f9 3c3e
000002a0: b315 b53e e85b 2cbd cbe9 d73d 6ed6 2bbd
000002b0: ae81 3a3d f246 8d3c dc59 7e3d 8d6c 75bd
000002c0: 8517 8dba cd33 38bc 5bc9 ebbc f6a2 4e3e
000002d0: 0bcd 8c3d 24ec fc3c aade 6f3c 21f1 1cbd
000002e0: 410e fc3d d497 483e e55a 5cbe 771e ef3d
000002f0: e02c cc3b 28f6 1fbe f41b 92be f45f 30be
00000300: a6bf a83d 8504 47be 7583 92bd da7a cd3c
00000310: cf3b 533e a224 0abd 336e 3e3d db4e 0d3e
00000320: eeae fbba e947 353d b573 09bc f360 033d
00000330: c84e 293d 6a83 e53d 4ac7 a0bb 16c6 9ebc
00000340: 9e54 813b 79a2 e03d c8e9 b73d 5e0d 22bd
00000350: 7dad 8a3d 521b 623d c505 82bc bb02 4d3d
00000360: ab74 833b e5bf 19be 7c02 de3d 8487 c4bc
00000370: 146d b2b9 9ead b2bc 0e74 2dbe 24c3 d4bd
00000380: 130b b1bd 0742 9c3e 945c d53c 3c9c 193e
00000390: 1af5 66be 5e89 d3bc 0473 fbbc 2306 0b3e
000003a0: 2449 d73c 3be5 95bc d287 d93d da24 afbd
000003b0: 9b16 17bc 8d07 ab3d 9078 0abe a33a 793e
000003c0: df02 573d 2131 523a ae48 cf3d 85e3 d3bc
000003d0: 3fc1 c13e c682 d63d 40f9 fa3d 547c 543e
000003e0: 566a ac3c 4df2 16be c805 0c3d 610f 95bd
000003f0: 25e7 7abe e7f4 afbc 876d 153e 4b87 043d

fc3.bias f4 [4]
0.14946419 0.12100763 0.09045343 0.119268745
00000000: 240d 193e d9d2 f73d a63f b93d 2c43 f43d
