target_net2.pth (torch, 285296 bytes, 6 tensors)

fc1.weight f4 [256, 14]
0	0x3e1d6be9	0.15373196
1	0xbea9e902	-0.33185583
2	0x3e7e51dd	0.24835916
3	0x3d0461f2	0.03231997
4	0xbc8a0156	-0.01684634
5	0x3c269331	0.010166929
6	0xbe71da51	-0.23618437
7	0xbed1da24	-0.4098674
8	0x3d873919	0.066026874
9	0x3ecbba61	0.39790633
10	0xbdbd4290	-0.092412114
11	0x3e46da96	0.19419321
12	0x3eaa7643	0.33293352
13	0x3db38f5e	0.087675795
14	0x3e57740b	0.2104036
15	0x3cfb11e3	0.030648177
16	0x3e1cfce9	0.15330853
17	0xbdd764bb	-0.1051726
18	0xbded17fd	-0.11576841
19	0x3d89963c	0.06718108
20	0x3cb398a4	0.02192337
21	0xbee2300e	-0.44177288
22	0x3e1736e3	0.14767031
23	0xbcc352cd	-0.023843193
24	0x3d91017c	0.07080361
25	0xbb4fd544	-0.003171281
26	0xbde9a180	-0.11407757
27	0xbd98b1f0	-0.07455814
28	0xbedb9a04	-0.42890942
29	0x3dd831dd	0.10556386
30	0xbe78940e	-0.24275228
31	0xbd7734f6	-0.06035324
32	0x3db0aee4	0.08627108
33	0xbe2b3fb7	-0.16723524
34	0xbca984bd	-0.020693177
35	0x3e916b0c	0.28401983
36	0xbda44ae4	-0.08022097
37	0x3dac1899	0.08403129
38	0xbe64a000	-0.2232666
39	0x3da70450	0.081551194
40	0x3e036800	0.12832642
41	0xbc1958c8	-0.009359546
42	0xbea3ad2e	-0.31968063
43	0xbd03987a	-0.032127835
44	0x3ea46052	0.32104737
45	0x3eb7135c	0.35756958
46	0xbe341559	-0.17586268
47	0x3d44f252	0.048082657
48	0xbd067a0c	-0.032831237
49	0xbd4edb35	-0.05050202
50	0x3e44360c	0.19161242
51	0x3e6bb170	0.23016906
52	0x3dac5e15	0.08416382
53	0xbe3e59cf	-0.18588947
54	0xbeb8ebbb	-0.36117348
55	0x3d4a18f2	0.049340196
56	0xbe42f22c	-0.19037694
57	0xbe57f298	-0.21088636
58	0xbd997866	-0.07493667
59	0x3dc34f4c	0.09536609
60	0x3d2c997c	0.04213856
61	0x3e32bccc	0.17454833
62	0xbd97ff7d	-0.074217774
63	0xbeff3ee5	-0.49852672
64	0xbdbfd9d9	-0.09367723
65	0x3e9420a3	0.2893115
66	0x3e7497e3	0.23886065
67	0x3e95fe05	0.29295364
68	0x3ed11044	0.40832722
69	0xbe6dfe6a	-0.23241583
70	0xbd0dc713	-0.03461368
71	0xbc07ada7	-0.008281148
72	0xbe8946dc	-0.26811874
73	0x3e2f978e	0.17147657
74	0x3d5aead7	0.053446617
75	0x3e351bcb	0.17686383
76	0xbe394954	-0.18094379
77	0x3e8eca5c	0.27888763
78	0xbe788247	-0.24268447
79	0x3e48f468	0.19624484
80	0xbc0542c2	-0.008133592
81	0xbdb308c2	-0.08741905
82	0x3e43aadb	0.19108145
83	0xbd345d11	-0.044034068
84	0xbe9f1c44	-0.31076252
85	0x3d8112bf	0.06302404
86	0x3ddd95b3	0.108195685
87	0x3e125d1a	0.14293328
88	0x3d8dbd6e	0.069208965
89	0xbdeb9760	-0.11503482
90	0xbdbe23b1	-0.09284151
91	0xbe3f36db	-0.1867327
92	0xbe4df27f	-0.20112036
93	0xbdec5e56	-0.11541431
94	0x3d66aebd	0.056318987
95	0x3d3b0571	0.045659486
96	0xbdaab06a	-0.083344296
97	0x3dc3de61	0.095639
98	0x3ea91fdc	0.3303212
99	0x3ec48beb	0.38388
100	0x3e0e9069	0.13922276
101	0x3dbb5051	0.091461785
102	0xbd469c3e	-0.048488848
103	0xbd5d2d40	-0.053998232
104	0xbeaf8a52	-0.34285218
105	0xbe849493	-0.25894603
106	0xbeaf45fd	-0.34233084
107	0xbde8db0c	-0.11369905
108	0x3e65494d	0.22391243
109	0x3d9d4fed	0.0768126
110	0xbe7aab49	-0.24479403
111	0xbebf3026	-0.37341422
112	0xbe97712d	-0.29578534
113	0xbe54b029	-0.20770325
114	0xbe8646e2	-0.26225954
115	0x3eacc693	0.3374525
116	0x3e5bc54c	0.21461982
117	0xbe1f7f3a	-0.15575877
118	0x3e675259	0.22590007
119	0xbeb0195b	-0.34394345
120	0xbe7bd4f1	-0.2459295
121	0x3dc364b7	0.09540694
122	0xbdfa82b2	-0.122319594
123	0x3d278a5f	0.040903445
124	0xbdd4314c	-0.10360965
125	0x3e1a11c6	0.15045843
126	0xbe124aab	-0.14286296
127	0x3eb2058a	0.3476985
128	0xbea377c8	-0.31927323
129	0x3d268f84	0.04066421
130	0x3c00e0f4	0.007866133
131	0xbd7877ff	-0.060661312
132	0xbe5cb51f	-0.21553467
133	0xbe0dceee	-0.13848469
134	0xbe2d47c7	-0.16921912
135	0xbd880cb3	-0.06643047
136	0x3d3b3a31	0.045709793
137	0xbdea7462	-0.114479795
138	0xbbe61e42	-0.00702265
139	0x3d4e4449	0.05035809
140	0x3d231312	0.03981311
141	0x3cf8e481	0.030382397
142	0xbd47d12b	-0.048783462
143	0xbe45178e	-0.19247267
144	0xbdf50d1a	-0.119653895
145	0xbdbe3f68	-0.092894375
146	0xbe2801d3	-0.16406946
147	0xbeab1d47	-0.33420774
148	0x3e6c70b3	0.23089866
149	0xbd3afda7	-0.045652058
150	0x3db8c850	0.090225816
151	0xbd5accbd	-0.05341791
152	0xbeae9c38	-0.3410356
153	0x3db2ef35	0.08737031
154	0xbee5f906	-0.44916552
155	0x3e675a38	0.2259301
156	0xbdb17d7a	-0.08666511
157	0x3e74d0cb	0.23907773
158	0x3cbd5bcc	0.023115061
159	0xbd01bae6	-0.03167238
160	0x3d3dbdd2	0.046323605
161	0xbe2fc6b7	-0.17165647
162	0x3e47b130	0.19501185
163	0x3d756988	0.059915096
164	0x3e6aba0a	0.22922531
165	0xbe4615ed	-0.19344302
166	0x3e1daa59	0.15397014
167	0x3c8bbfac	0.01705917
168	0xbe0a700f	-0.1351931
169	0x3e44c4f1	0.19215752
170	0xbb2faeb6	-0.0026807017
171	0xbbb84c19	-0.005624306
172	0x3c6d1ae3	0.014471742
173	0xbecab124	-0.39588273
174	0x3eadb51d	0.3392724
175	0xbe45b4c9	-0.19307245
176	0xbd6f90f8	-0.058487862
177	0xbe2e636f	-0.17030118
178	0x3d8e7088	0.069550574
179	0x3e8df27e	0.2772407
180	0xbe8cf3d8	-0.27529788
181	0xbf766fbb	-0.9626424
182	0x3e75ff3f	0.2402315
183	0x3e947dad	0.29002133
184	0xbe4dc46b	-0.20094459
185	0xbe4b1c0d	-0.1983492
186	0x3deff1c4	0.11716035
187	0xbf403815	-0.75085574
188	0xbe64092a	-0.22269121
189	0x3e6dc627	0.2322012
190	0x3e23e39d	0.16004796
191	0xbad24689	-0.001604275
192	0x3db8cfa4	0.09023979
193	0xbc2c2d56	-0.010508856
194	0xbb588e0b	-0.0033043649
195	0xbf3253a8	-0.696589
196	0x3dd466dc	0.10371181
197	0xbe945abc	-0.28975475
198	0x3cc608c8	0.02417411
199	0x3dac8b52	0.08425011
200	0x3dc7bb70	0.09752548
201	0xbe1755a0	-0.14778757
202	0xbdb900f3	-0.09033384
203	0x3e2a00b7	0.16601835
204	0xbebc7ef2	-0.36815602
205	0x3d9a9abf	0.07549047
206	0x3e757b2c	0.23972768
207	0xbe18e154	-0.14929706
208	0xbec77602	-0.3895722
209	0x3e06d6f5	0.13167937
210	0xbe47b2f3	-0.19501857
211	0x3e54f98f	0.20798324
212	0x3e494eb0	0.19658923
213	0x3e17055f	0.14748143
214	0x3d4ac310	0.049502432
215	0x3e3b84cd	0.18312378
216	0xbeadd51a	-0.33951646
217	0x3eb495d4	0.3527056
218	0x3e0d30cd	0.13788147
219	0x3e20a09b	0.15686266
220	0x3d75d79b	0.06002007
221	0xbc621ad4	-0.013800342
222	0xbecac523	-0.39603528
223	0xbe2256de	-0.1585345
224	0xbe9d6407	-0.30740377
225	0x3d969246	0.07352118
226	0x3dba7131	0.09103621
227	0xbca5450d	-0.020174528
228	0xbe334802	-0.17507938
229	0x3d18a094	0.037262514
230	0xbea27ecf	-0.31737372
231	0xbd9ebb42	-0.0775056
232	0x3cfaf72c	0.030635439
233	0x3d130ebd	0.035902727
234	0x3e3ed356	0.18635306
235	0xbe444c90	-0.19169831
236	0xbe9278f0	-0.28607893
237	0xbd611b0e	-0.054957442
238	0x3e69221d	0.2276692
239	0xbe069a7e	-0.13144872
240	0x3df41820	0.11918664
241	0xbcc9a554	-0.024614967
242	0x3ddac0b6	0.10681288
243	0x3d70fc1f	0.05883419
244	0xbd03d32a	-0.032183804
245	0x3cb4f0f5	0.022087554
246	0xbe7c11be	-0.24616143
247	0x3d6e289a	0.05814419
248	0x3d5e40bc	0.054260954
249	0xbedd4522	-0.43216807
250	0xbd44e9cd	-0.048074532
251	0xbd90b159	-0.070650764
252	0xbe0a1157	-0.13483177
253	0xbc88a230	-0.0166789
254	0xbe0debf1	-0.13859536
255	0xbc650b87	-0.013979799

fc1.bias f4 [256]
0	0xbe36bfc8	-0.17846596
1	0x3e073bae	0.1320636
2	0xbe3616f3	-0.17782192
3	0xbc0aef57	-0.008479915
4	0x3d1fcc7c	0.03901337
5	0xbc843651	-0.016139181
6	0x3d6ae44f	0.05734664
7	0xbe9b3a58	-0.3031795
8	0xbe4aad7a	-0.19792739
9	0x3dea091a	0.11427517
10	0x3e05894c	0.13040656
11	0xbe07d5e9	-0.13265194
12	0xbdec27ec	-0.11531052
13	0xbe536b98	-0.20646513
14	0x3dd84f8d	0.10562048
15	0x3d75193d	0.059838522
16	0x3e5c5708	0.21517575
17	0x3e38b33f	0.18037127
18	0x3db91fa4	0.09039238
19	0x3e2ef077	0.17083918
20	0x3e109d39	0.14122476
21	0x3d9df6b4	0.077130705
22	0xbe4a6003	-0.19763188
23	0x3e20e21b	0.15711252
24	0x3d73586c	0.059410498
25	0xbe03e592	-0.12880543
26	0x3e9319f8	0.2873075
27	0xbdf1bcd8	-0.11803597
28	0xbc1b771b	-0.009488846
29	0xbe02dbb6	-0.12779126
30	0xbd93212c	-0.071840614
31	0xbb56fbdb	-0.0032803926
32	0x3d9c410a	0.07629593
33	0x3d63e153	0.055634808
34	0xbe201c7d	-0.15635867
35	0xbe046a33	-0.12931137
36	0xbda4e5ea	-0.08051665
37	0x3e511600	0.20418549
38	0xbd081456	-0.03322252
39	0x3e39315b	0.18085234
40	0x3df540e5	0.11975268
41	0x3cbacd12	0.022802863
42	0x3cc0bf0a	0.023528595
43	0x3c9c30f6	0.019066315
44	0x3e88e935	0.26740423
45	0xbd4ed784	-0.0504985
46	0xbe9f3438	-0.31094527
47	0xbe439c87	-0.19102679
48	0x3de9cc3a	0.11415906
49	0xbdf47894	-0.11937061
50	0x3de65126	0.112459466
51	0xbdb5e8e7	-0.08882313
52	0xbe15e030	-0.14636302
53	0xbda7a317	-0.08185404
54	0xbc819277	-0.01581691
55	0xbe6b2675	-0.22963889
56	0xbe0d48c1	-0.13797285
57	0xbc13b833	-0.0090160845
58	0xbeb3d1c4	-0.35120976
59	0xbe515f9b	-0.20446627
60	0xbe661f1e	-0.22472808
61	0xbd45d75b	-0.048301082
62	0x3d333e64	0.043760672
63	0xbe6ccd3a	-0.23125163
64	0x3df1b332	0.11801757
65	0xbea0c28d	-0.3139843
66	0x3d60762c	0.054800197
67	0xbd91902e	-0.07107578
68	0xbe7ad628	-0.24495757
69	0xbd1ca854	-0.038246468
70	0xbe2fb095	-0.17157204
71	0xbdb5d70c	-0.088789076
72	0x3dd16b5b	0.102255546
73	0x3e716e0b	0.23577134
74	0xbdee1e16	-0.11626832
75	0x3d63d39f	0.05562174
76	0x3e484ac4	0.19559771
77	0x3e293b50	0.16526532
78	0xbc5ccfb9	-0.013477259
79	0xbeb72f26	-0.3577816
80	0xbe60cd6f	-0.21953367
81	0x3e1b94a1	0.15193416
82	0x3d77545b	0.060383182
83	0x3cb31aea	0.02186342
84	0xbd95f56a	-0.073222
85	0x3e03dacb	0.12876432
86	0x3d79aa33	0.06095333
87	0x3db71403	0.08939364
88	0x3e5a9ca5	0.21348818
89	0xbd51fa85	-0.051264305
90	0xbda7f0d0	-0.08200228
91	0x3d9c1976	0.07622044
92	0xbdbd860c	-0.09254083
93	0xbe117d28	-0.142079
94	0xbe5e3db6	-0.21703228
95	0xbdf55a9d	-0.11980174
96	0x3df047a9	0.11732418
97	0xbe1dd8bb	-0.15414707
98	0xbde8d3a9	-0.11368496
99	0x3c8ae193	0.016953265
100	0xbddc187f	-0.1074686
101	0xbe7614c9	-0.24031366
102	0x3e1d546d	0.15364237
103	0xbdf95a9a	-0.12175484
104	0xbdc6f806	-0.097152755
105	0x3e121aee	0.14268085
106	0xbcc68c96	-0.024236958
107	0x3e6c7353	0.23090868
108	0xbe3023e7	-0.17201196
109	0x3e1afd45	0.15135677
110	0xbe338193	-0.17529897
111	0x3d96d2a0	0.07364392
112	0xbdd550b1	-0.10415781
113	0xbe08a429	-0.13343872
114	0xbe761f3f	-0.24035357
115	0x3d6db9bb	0.058038455
116	0xbe9dc632	-0.30815274
117	0x3da16f24	0.078825265
118	0xbd8513cf	-0.06497919
119	0x3dbfab37	0.093588285
120	0xbe7f2f35	-0.24920352
121	0x3e286c5d	0.16447587
122	0xbe8e50ba	-0.27795964
123	0x3e077e7c	0.13231844
124	0x3ccdbb27	0.025113655
125	0xbe246e5f	-0.16057728
126	0xbda792bc	-0.08182284
127	0x3dead36b	0.11466106
128	0xbd0f7827	-0.035026696
129	0x3dfecbf2	0.12441243
130	0xbd7e7c6a	-0.06213037
131	0xbdfbbff9	-0.12292475
132	0x3d9ac0fe	0.075563416
133	0xbe88dc36	-0.26730508
134	0xbc3fd50e	-0.011708511
135	0xbeb1e2e5	-0.3474342
136	0xbdd8057d	-0.10547922
137	0xbbea4ff8	-0.0071506463
138	0xbdfac190	-0.1224395
139	0xbe797d27	-0.24364148
140	0x3e1de042	0.15417579
141	0x3d3946eb	0.04523365
142	0xbc93210d	-0.017960096
143	0x3c8bd8bc	0.01707112
144	0xbe79515c	-0.24347442
145	0x3de5128e	0.1118518
146	0xbe0abbfe	-0.13548276
147	0x3e74cf0f	0.23907112
148	0x3d7800ab	0.060547512
149	0xbd7daa4f	-0.061929997
150	0xbdb636ad	-0.08897147
151	0x3c4262d1	0.01186438
152	0xbbe6744c	-0.0070329066
153	0xbd2edff4	-0.042694047
154	0x3dd3dcbd	0.10344837
155	0x3ded68f4	0.11592284
156	0x3e10e4da	0.141498
157	0xbe145ebf	-0.14489268
158	0x3d9c3432	0.07627143
159	0xbd3dc20e	-0.046327643
160	0xbe91af38	-0.28453994
161	0xbe0fc21c	-0.1403889
162	0xbe1e01a2	-0.1543031
163	0x3e30d225	0.17267664
164	0x3d375465	0.04475822
165	0xbe21d331	-0.1580322
166	0x3dfd02b5	0.12354032
167	0xbea274d1	-0.3172975
168	0xbe5d3d9e	-0.21605536
169	0x3d2cf10b	0.042222064
170	0x3e3d16a8	0.18465674
171	0x3c8ca762	0.017169658
172	0xbdb53d15	-0.08849541
173	0x3d919d52	0.071100846
174	0xbeae86f7	-0.34087345
175	0x3e9fdeec	0.31224763
176	0xbd34c173	-0.0441298
177	0x3b9cff30	0.004791163
178	0xbe8c2526	-0.27372092
179	0xbeb2eaf0	-0.34944868
180	0xbe38646e	-0.18007061
181	0x3c625f8d	0.013816726
182	0x3d9b7abf	0.07591771
183	0xbd5aee67	-0.053450014
184	0xbd9655e9	-0.07340605
185	0xbe775385	-0.24152954
186	0x3e0bb941	0.13644888
187	0x3e999840	0.2999897
188	0x3df8497a	0.121233895
189	0xbe239f9c	-0.15978855
190	0x3db2a57c	0.0872297
191	0x3e365030	0.17804027
192	0x3d5beecc	0.05369453
193	0xbbd2f2ff	-0.006437659
194	0xbe4b2591	-0.19838549
195	0x3e079ab4	0.13242608
196	0xbda6c0ca	-0.0814224
197	0xbe7e0137	-0.24805151
198	0xbd0eccdf	-0.03486335
199	0xbdaa2b3c	-0.083090276
200	0xbcbe1066	-0.023201179
201	0xbdff7de7	-0.12475186
202	0xbd492b29	-0.049113426
203	0xbdeda486	-0.11603646
204	0xbe696697	-0.22793041
205	0xbe43ce19	-0.19121589
206	0xbe4cf39b	-0.20014803
207	0x3db67455	0.08908907
208	0xbd0fddb2	-0.035123535
209	0x3d9f213c	0.07770011
210	0xbd7fb0f0	-0.0624246
211	0x3d848d62	0.06472279
212	0x3bf9d59a	0.0076243402
213	0xbe67487d	-0.22586246
214	0xbe3ca2c1	-0.1842146
215	0x3e478d14	0.19487411
216	0xbdbcdcfa	-0.092218354
217	0xbe6c1396	-0.23054346
218	0xbdef2993	-0.116778515
219	0xbe84e8a4	-0.2595874
220	0xbe9bfc3d	-0.3046588
221	0x3d00e205	0.03146555
222	0xbda9e831	-0.0829624
223	0x3ce2bc3f	0.027677653
224	0xbe0a5326	-0.13508281
225	0xbe59cad6	-0.21268782
226	0xbb8d1782	-0.004305781
227	0xbe681960	-0.2266593
228	0x3da4e1b8	0.08050865
229	0xbe0ac946	-0.13553342
230	0x3d816713	0.06318488
231	0xbe507972	-0.20358828
232	0xbe71a38f	-0.23597549
233	0x3d5fb8ef	0.054619726
234	0x3e5a3cb0	0.21312213
235	0xbe4d8964	-0.20071942
236	0xbe931280	-0.28725052
237	0xbdcafbfa	-0.09911342
238	0x3e14234e	0.14466593
239	0x3dd64e3d	0.104641415
240	0xbe8799fa	-0.26484662
241	0xbe399797	-0.18124233
242	0x3e0b6075	0.13611014
243	0xbe445061	-0.19171287
244	0xbe3df8d6	-0.18551955
245	0xbdababc3	-0.0838237
246	0xbdc8e238	-0.09808773
247	0x3deecfb0	0.11660707
248	0x3cffcef4	0.031226613
249	0x3d393d5b	0.04522453
250	0xbe36f989	-0.17868628
251	0x3ddb0637	0.10694545
252	0xbc56ae2e	-0.013103051
253	0xbe31dc8d	-0.1736929
254	0xbea7eb38	-0.32796645
255	0xbe70b1e3	-0.23505358

fc2.weight f4 [256, 256]
0	0xbc78a907	-0.015177018
1	0xbd8b16dc	-0.067914695
2	0xbd603c69	-0.05474511
3	0xbd8f9acb	-0.07011946
4	0x3c02ed0b	0.007991086
5	0xbc9b989a	-0.018993665
6	0xbbeb8537	-0.0071875113
7	0x3d805a8a	0.06267269
8	0x3d483ed7	0.048888054
9	0xbd735bb8	-0.05941364
10	0xbcd91ac1	-0.026502015
11	0x3cde82cb	0.027161976
12	0xbd052ab7	-0.03251144
13	0xbd18216b	-0.037141245
14	0x3c0e4c37	0.008685163
15	0xb9591189	-0.00020701265
16	0x3d5eec25	0.054424424
17	0x3cdb80f5	0.02679489
18	0xbd97cb62	-0.07411839
19	0x3d5ff46e	0.054676466
20	0xbd050682	-0.03247691
21	0xbc44fd72	-0.012023317
22	0x3c9d83db	0.019227913
23	0xbb963ae4	-0.004584657
24	0xbc0258ad	-0.007955712
25	0xbc1da56d	-0.00962196
26	0xbcd9e735	-0.026599506
27	0xbd7536e8	-0.059866816
28	0xbd6f5f77	-0.05844065
29	0x3bd014f7	0.0063501555
30	0xbd8bc812	-0.0682527
31	0xba6f075f	-0.0009118225
32	0xbd4b21ae	-0.049592666
33	0x3ccbba6a	0.024869163
34	0xbd9cb431	-0.07651556
35	0xbc5c7adc	-0.013457026
36	0x3ce39be9	0.027784305
37	0xbcd66492	-0.026171003
38	0x3bceda96	0.0063126786
39	0x3ccbbe2e	0.024870958
40	0x3cf90c25	0.030401299
41	0x3d36cc87	0.044628646
42	0xbd789940	-0.060693026
43	0xbd517edd	-0.051146377
44	0xbc0954c3	-0.008382025
45	0x3c7dd082	0.015491607
46	0xbcace2e7	-0.02110429
47	0xbd776d78	-0.060407132
48	0xbc614caa	-0.013751188
49	0xbda17050	-0.0788275
50	0xbc86c511	-0.01645139
51	0xbd03550f	-0.03206354
52	0xbd762b0e	-0.060099654
53	0xbd432b86	-0.04764893
54	0xbd52722c	-0.051378414
55	0xbc2777c5	-0.010221426
56	0xbcb95d09	-0.02262737
57	0xbda5f1ac	-0.08102736
58	0x3be828d2	0.0070849443
59	0x3c8bd846	0.0170709
60	0xbcb8a495	-0.022539416
61	0xbc3144ab	-0.010819594
62	0x3cb7d6ca	0.022441287
63	0x3d45d204	0.04829599
64	0x3c9b7610	0.018977195
65	0xbd4a9c2b	-0.04946534
66	0xbd15290e	-0.036416106
67	0x3c75c6c2	0.015001001
68	0xbc9652de	-0.018350061
69	0xbca28785	-0.019840011
70	0x3a147ae3	0.00056640635
71	0xbb992890	-0.004674025
72	0xbd848d45	-0.064722575
73	0xbd43ae05	-0.04777338
74	0xbd934686	-0.07191186
75	0x3ce8f8c3	0.028438931
76	0xbd84c693	-0.064831875
77	0xbbcbd0e6	-0.006219971
78	0xbc934fb4	-0.017982341
79	0x3a30c410	0.0006743083
80	0xbca0974f	-0.0196034
81	0x3cd41d6f	0.025892941
82	0xbdafcd1d	-0.08584044
83	0xbd9065d1	-0.0705067
84	0xbc09930e	-0.008396877
85	0x3cce07cb	0.0251502
86	0xbd97b048	-0.0740667
87	0xbdbec165	-0.09314231
88	0xbd6441a3	-0.05572666
89	0xbd18369b	-0.03716145
90	0x3cea6575	0.028612832
91	0xbd95309b	-0.072846614
92	0x3cb605e3	0.022219604
93	0xbb882bd0	-0.0041556135
94	0xbb1ebc80	-0.0024221241
95	0xbd241fe5	-0.04006948
96	0xbd49d074	-0.049271062
97	0xbd5fa94a	-0.054604806
98	0xbd72d1b2	-0.059282012
99	0xbdab0dde	-0.08352254
100	0x3d4e400a	0.05035404
101	0xbc3d9f13	-0.011573571
102	0x3cdd849a	0.027040768
103	0x3943ee39	0.00018685394
104	0xbd6d7f82	-0.05798293
105	0xbd4b106c	-0.049576208
106	0x3d45eb7b	0.048320275
107	0x3c43f840	0.011961043
108	0x3d1a9936	0.03774377
109	0xbd8f7200	-0.07004166
110	0xbd8d4c9b	-0.06899377
111	0x3b92a3d9	0.0044750986
112	0xbd20c8d0	-0.03925401
113	0xbda69a64	-0.081349164
114	0xbd175713	-0.036948275
115	0x3c31c422	0.010849984
116	0xbdbb8f38	-0.09158176
117	0xbb0c1001	-0.0021371844
118	0x3d35c1a0	0.04437411
119	0x3cc147bf	0.023593782
120	0x3bb49d9b	0.005511952
121	0xbd8dc2d3	-0.069219254
122	0xbd726331	-0.059176628
123	0xbc5daa91	-0.013529436
124	0x3cf2e694	0.029650964
125	0x3d667619	0.05626497
126	0xbafe611b	-0.0019407602
127	0xbbe4460b	-0.0069663576
128	0xbd3da3b5	-0.0462987
129	0xbd3f2b14	-0.046671942
130	0xbd680f9b	-0.056655508
131	0xbd36a11b	-0.044587236
132	0xbd93331c	-0.07187483
133	0xbd0899af	-0.03334969
134	0xbd29c4e6	-0.041447543
135	0xbc458802	-0.012056353
136	0x3cc46bdc	0.023977213
137	0x3cfa2f9e	0.030540284
138	0x3c203c50	0.009780005
139	0xbcf151e7	-0.029458
140	0xbc36209b	-0.011116172
141	0xbd2b5326	-0.041827343
142	0xbc8187c8	-0.015811816
143	0xbd6bdc11	-0.05758292
144	0xbc69ce08	-0.014270313
145	0xbd960ee4	-0.07327059
146	0xbd51aafa	-0.051188447
147	0xbd6da5b1	-0.058019344
148	0x3c9de568	0.019274428
149	0xbd85a98e	-0.065264806
150	0x3d120097	0.035645094
151	0xbd0c4128	-0.034241825
152	0xbd03268a	-0.032019176
153	0xbd84adfc	-0.064784974
154	0xbd1ec229	-0.038759384
155	0x3cbc4cf3	0.022985911
156	0x3cdafc5f	0.026731668
157	0x3c0f0a1c	0.008730438
158	0xbcbd2163	-0.02308721
159	0xbd6ff729	-0.05858532
160	0xbcc8338e	-0.024438646
161	0x3d391f23	0.04519571
162	0xbd15c06c	-0.03656046
163	0xbc507ac0	-0.012724578
164	0xbcdb59ef	-0.026776282
165	0xbd649e5d	-0.05581509
166	0xbc369218	-0.01114323
167	0xbd059218	-0.03261003
168	0xbd5bfe2a	-0.053709187
169	0x3b0a1628	0.0021070335
170	0xbd321430	-0.043476284
171	0x3d35e0e2	0.044403918
172	0xbd7b5d99	-0.06136856
173	0xbc92f019	-0.017936753
174	0x3d4f553e	0.050618403
175	0xbd487f8b	-0.04894976
176	0x3cf85888	0.030315652
177	0x3d27ae35	0.04093762
178	0x3c3ce9e8	0.011530377
179	0xbbb095e2	-0.005388961
180	0xbcb11760	-0.021617591
181	0x3b828e3b	0.0039842403
182	0xbc37d890	-0.011221066
183	0xbcd2fd12	-0.025755439
184	0xbcf28aa4	-0.029607125
185	0x3b5a8bad	0.0033347413
186	0xbd68685c	-0.05674015
187	0xbc82fcd9	-0.015989708
188	0x3d0e583d	0.03475212
189	0xbd950600	-0.07276535
190	0xbdba09b7	-0.09083884
191	0x3d1c41fc	0.038148865
192	0x3c494cb0	0.01228635
193	0x3c9de8ee	0.019276109
194	0x3b344ddb	0.0027512226
195	0xbcfb798a	-0.030697603
196	0xbd8eb058	-0.06967229
197	0xbd5f1998	-0.054467767
198	0x3d336f26	0.04380717
199	0xbbc8eafb	-0.0061315275
200	0xba8ae569	-0.0010596934
201	0x3d88962c	0.06669268
202	0x3c6d4485	0.014481668
203	0xbd58a381	-0.052890304
204	0x3a8bd940	0.0010669604
205	0xbcf94463	-0.030428117
206	0x3d01cac8	0.031687528
207	0xbd628b86	-0.05530884
208	0xbca83b40	-0.020536065
209	0xbd4cdcdc	-0.050015315
210	0xbd3147f9	-0.04328153
211	0x3c474d4d	0.012164426
212	0x3ca8c3d5	0.020601192
213	0x3cc0bb2b	0.023526749
214	0x3c3f0c58	0.011660658
215	0xbb8644e5	-0.0040975683
216	0x3d4c29a4	0.0498444
217	0xbd871611	-0.06596006
218	0xbd8c2e7c	-0.06844804
219	0xbb5b4d65	-0.0033462879
220	0xbd092dad	-0.033490825
221	0xbd60d213	-0.054887842
222	0xbd60e097	-0.054901686
223	0x3b6bebaf	0.0035998633
224	0xbd43c172	-0.047791906
225	0xbcae5c85	-0.021284351
226	0xbd1328c1	-0.035927538
227	0xbc47e12c	-0.012199681
228	0x3c5485a1	0.012971313
229	0x3c7e4d07	0.015521294
230	0xbd9aa92e	-0.075518
231	0xbd8f067a	-0.06983657
232	0xbcae516a	-0.021279056
233	0x3d580e5e	0.052748077
234	0xbdaaac7c	-0.0833368
235	0x3cbe084d	0.023197317
236	0x3d2f692a	0.0428249
237	0x3c78557c	0.0151571
238	0xbda8b7c6	-0.08238177
239	0xbdc7ca29	-0.09755356
240	0xbc667ae8	-0.014067389
241	0xbd227e34	-0.039671138
242	0xbced0b07	-0.028935922
243	0xbb2e99e7	-0.0026642026
244	0x3bb14f2c	0.0054110494
245	0x3c09493c	0.008379277
246	0xbcd5efdd	-0.026115352
247	0x3bdc36de	0.006720408
248	0xbd489c2f	-0.048977073
249	0xbd8b660c	-0.06806573
250	0xbb8d85e9	-0.004318942
251	0xbd9a9a5b	-0.07548972
252	0x3c3ad7a8	0.0114039555
253	0x3c08377e	0.008314012
254	0x3c937a07	0.018002523
255	0x3cd92878	0.026508555

fc2.bias f4 [256]
0	0xbda6d87a	-0.081467584
1	0xbc88696d	-0.016651833
2	0xbd7656c4	-0.06014134
3	0x3cf681dd	0.03009122
4	0x3dee6b2d	0.11641536
5	0xbdac4812	-0.08412184
6	0xbc95590d	-0.01823094
7	0xbde1e3e4	-0.11029795
8	0x3c35e74c	0.011102509
9	0x3d80dc95	0.06292073
10	0x3d02aa69	0.031900797
11	0xbdc8420d	-0.09778223
12	0xbd6f8ff6	-0.0584869
13	0xbd764203	-0.060121547
14	0x3bea9fe4	0.0071601737
15	0xbcb0027e	-0.021485563
16	0xbb8e71f5	-0.004347081
17	0x3ca61a09	0.020276086
18	0xbaed1126	-0.0018086776
19	0xbd96cf1d	-0.073637225
20	0xbd02e3ac	-0.031955406
21	0xbe1ee5a7	-0.15517293
22	0xbd6ea8ee	-0.058266573
23	0x3c4be54f	0.012444808
24	0x3daa1787	0.08305269
25	0xbcaa5022	-0.020790163
26	0x3cf9eaa8	0.0305074
27	0xbc56cf26	-0.0131109115
28	0xbd08b25f	-0.033373233
29	0xbc8354ed	-0.016031707
30	0x3d7d8d20	0.061902165
31	0xbca4cd24	-0.02011735
32	0x3c1415ae	0.009038372
33	0xbd84c659	-0.06483144
34	0x3d8e8823	0.0695956
35	0x3e35865e	0.17727038
36	0x3d6f7b2e	0.058467083
37	0x3d2e70ba	0.042587973
38	0xbd587500	-0.052845955
39	0x3d94c9be	0.07265042
40	0xbca40fd5	-0.02002708
41	0xbc5adfbd	-0.013359007
42	0x3ca0ecde	0.019644197
43	0xbddc849a	-0.10767479
44	0xbb8f484a	-0.004372631
45	0xbd0255a3	-0.03181995
46	0x3d856ef5	0.06515304
47	0xbdb69711	-0.089155324
48	0xbde6fc0e	-0.11278544
49	0xbd850e97	-0.064969234
50	0xbce289a8	-0.02765353
51	0xbc5313aa	-0.012883106
52	0xbd1ebaad	-0.038752247
53	0x3ce8d5b1	0.028422209
54	0x3d9da09c	0.076966494
55	0xbd03243b	-0.032016974
56	0xbce4d062	-0.027931396
57	0x3dcb31c8	0.099216044
58	0xbd32e77b	-0.04367779
59	0x3cfd20ff	0.030899523
60	0x3c2b57c5	0.010457938
61	0xbded0010	-0.115722775
62	0xbd0d0684	-0.034430042
63	0xbde0795c	-0.109606475
64	0x3c0dddd9	0.00865885
65	0xbdb1c2ad	-0.086797096
66	0xbdcef90d	-0.101060964
67	0x3daba1c8	0.08380467
68	0xbdc9c683	-0.09852316
69	0xbd8f7f5d	-0.070067145
70	0xbcc06e13	-0.023489987
71	0xbd05670c	-0.032568976
72	0xbd71020b	-0.05883984
73	0xbbd1bd7d	-0.0064007626
74	0x3d9257ec	0.07145676
75	0xbd77e515	-0.060521204
76	0xbd6975c8	-0.05699709
77	0x3cf62ca4	0.030050583
78	0xb906de52	-0.00012862057
79	0xbde11892	-0.109910145
80	0x3d2927b0	0.041297615
81	0x3be0038a	0.0068363594
82	0xbdfd390c	-0.123643965
83	0xbd051026	-0.032486103
84	0x3d0ca862	0.03434027
85	0x3c92da82	0.017926458
86	0x3cd7284b	0.02626433
87	0xbd1c5751	-0.03816921
88	0xbbc35a65	-0.0059617036
89	0xbcc23c7c	-0.023710482
90	0xbca0fcdc	-0.019651823
91	0xbc24567b	-0.010030384
92	0xbc897208	-0.016778007
93	0xbd339bd5	-0.043849785
94	0xbbde3b64	-0.0067819823
95	0x3db685e4	0.08912256
96	0xbce26a26	-0.027638506
97	0xbd0ac129	-0.033875618
98	0x3da77b61	0.081778295
99	0x3d0b079a	0.033942796
100	0xbd34998f	-0.044091757
101	0x3ce24b58	0.027623817
102	0xbcb1e169	-0.02171393
103	0x3d6578ec	0.056023523
104	0xbdb471a8	-0.08810741
105	0xbb14c24f	-0.0022698825
106	0xbd21546a	-0.039387144
107	0x3b99b5d8	0.004690867
108	0x3c11136c	0.008854728
109	0x3d8e10fb	0.069368325
110	0xbce59f04	-0.028029926
111	0x3dd17d29	0.102289505
112	0xbd7fe05f	-0.062469836
113	0x3d6bd52a	0.057576336
114	0x3d807ca8	0.06273776
115	0x3d401dad	0.0469033
116	0xbd97ec89	-0.074181624
117	0xbc0ccc98	-0.008593701
118	0xbd9efef8	-0.07763475
119	0xbdc78e40	-0.09743929
120	0xbda945b4	-0.08265248
121	0xbd854122	-0.06506564
122	0xbd5603b9	-0.052249644
123	0xbc888935	-0.016666988
124	0xbda2f9b0	-0.0795778
125	0xbd06382c	-0.032768413
126	0xbd4ce2dd	-0.05002104
127	0xbd995081	-0.07486058
128	0x3d618647	0.055059697
129	0xbd518371	-0.051150743
130	0x3be0183c	0.0068388265
131	0xbace15c4	-0.0015723039
132	0x3bf653b9	0.0075173047
133	0xbd37c011	-0.044860903
134	0xbdc0a77b	-0.09406944
135	0xbd63231f	-0.055453416
136	0x3c35836b	0.011078696
137	0x3d453524	0.048146382
138	0x3bc0a7b1	0.0058793654
139	0x3ded0d82	0.11574842
140	0xbd6bf547	-0.05760696
141	0xbcd91daf	-0.026503412
142	0xbc7327d3	-0.014841038
143	0x3cf5688b	0.029957077
144	0xbd61c8db	-0.05512319
145	0x3cd4b58f	0.02596548
146	0xbdf06627	-0.11738234
147	0x3cb394d7	0.021921558
148	0x3dbeccb9	0.093163915
149	0xbd6cbe19	-0.05779848
150	0x3dd35bb8	0.10320228
151	0xbcf3c14a	-0.029755253
152	0xbc6b777d	-0.01437175
153	0x3c77a138	0.015114121
154	0x3b252e96	0.002520477
155	0x3cf61f21	0.03004414
156	0x3c20ae63	0.009807202
157	0xbd89ce03	-0.06728747
158	0xbc1925e0	-0.009347409
159	0x3d2ebf1b	0.04266272
160	0xbd823f7a	-0.063597634
161	0xbd903ef4	-0.07043257
162	0xbd758d60	-0.05994928
163	0x3d0abaaf	0.03386944
164	0xbd60e035	-0.05490132
165	0xbd45138b	-0.04811434
166	0xbc859468	-0.016306117
167	0xbd93d646	-0.07218604
168	0x3d732dda	0.0593699
169	0xbd753ba3	-0.059871327
170	0xbd54e5b5	-0.05197688
171	0xbb657577	-0.0035012641
172	0x3d58c31f	0.052920457
173	0xbd7df646	-0.062002443
174	0xbdc2fbb5	-0.095206656
175	0xbd005d9e	-0.03133928
176	0xbd8e279e	-0.0694115
177	0xbd4699bc	-0.048486456
178	0x3c056d47	0.0081437295
179	0x3dabfa28	0.08397323
180	0xbc39385c	-0.011304941
181	0xbd3fde49	-0.046842847
182	0xbd0a5ee0	-0.033781886
183	0x3d9dab4c	0.07698688
184	0xbdba102d	-0.090851165
185	0xbd8bd98d	-0.06828604
186	0xbcf0458f	-0.029330043
187	0xbd4819a6	-0.048852585
188	0xbd97d7b8	-0.07414192
189	0xbd602244	-0.05472018
190	0xbda4f44e	-0.0805441
191	0xbdb3f7d2	-0.08787502
192	0xbd6d264a	-0.057897843
193	0xbd8fe90d	-0.07026873
194	0xbd057951	-0.0325864
195	0xbdb10366	-0.08643226
196	0x3da8cec1	0.0824256
197	0xbd7d3257	-0.061815586
198	0x3cabbbe9	0.020963626
199	0xbd0ed6bc	-0.034872755
200	0xbc10eb0a	-0.0088451
201	0xbcc52563	-0.024065679
202	0xbda0ae73	-0.078457735
203	0x3e1a5bce	0.15074083
204	0xbdd0f3c8	-0.102027476
205	0xbca7ed1c	-0.020498805
206	0xbcfa3db4	-0.030547
207	0x3d7509aa	0.05982367
208	0xbb63c809	-0.0034756681
209	0xbd9aea4a	-0.07564218
210	0x3dcee75d	0.10102723
211	0x3a88b959	0.0010431214
212	0xbcb944d8	-0.022615835
213	0xbd9bb05b	-0.076019965
214	0x3cf3f1b2	0.029778335
215	0x3d602513	0.054722857
216	0xbcc13c4e	-0.023588326
217	0xbdbb163a	-0.09135099
218	0xbc817c01	-0.0158062
219	0xbd652cda	-0.055950977
220	0xbdb6b28d	-0.089207746
221	0xbcd0679e	-0.025440034
222	0xbdef732b	-0.116918884
223	0x3d18ed67	0.03733578
224	0xbd15178a	-0.0363994
225	0x3d0e47e1	0.034736518
226	0x3d3c3b33	0.045954894
227	0xbd8963b0	-0.06708467
228	0x3d8a9334	0.06766358
229	0xbd8b2dec	-0.06795868
230	0xbda9c4ee	-0.082895145
231	0x3d84b5e2	0.06480004
232	0xbd48714b	-0.04893617
233	0xbca35564	-0.019938178
234	0x3cfcc919	0.03085761
235	0x3d3157cf	0.04329663
236	0xbc9111f6	-0.01770876
237	0xbd5a8453	-0.05334885
238	0x3bb34820	0.0054712445
239	0xbd11f893	-0.03563745
240	0xbd457d4e	-0.048215203
241	0xbcd57d61	-0.026060762
242	0xbd3a9577	-0.045552697
243	0x3cb7eedf	0.02245277
244	0xbccfab41	-0.025350215
245	0xbdd5f30e	-0.1044675
246	0xbc7a0750	-0.0152605325
247	0x3cfe899c	0.031071477
248	0xbd8fb6be	-0.07017277
249	0xbd0a498d	-0.03376155
250	0xbdefa6bf	-0.11701726
251	0xbd702f6f	-0.058638986
252	0x3be2fdb8	0.0069272183
253	0xbdaf27dc	-0.085525244
254	0x3d8bb247	0.06821113
255	0x3cf37f24	0.029723711

fc3.weight f4 [4, 256]
0	0x3c5666f8	0.013086073
1	0x3e80171d	0.25017634
2	0x3d4cd820	0.0500108
3	0xbd0b90c5	-0.03407361
4	0x3d72ba78	0.05925986
5	0xbd430bfa	-0.047618844
6	0x3d627bb2	0.055293746
7	0x3de80550	0.11329138
8	0x3d2f4c48	0.042797357
9	0xbdee34d5	-0.11631171
10	0x3ca51ff2	0.020156834
11	0xbd0eb2be	-0.03483843
12	0xbd47833f	-0.04870915
13	0xbbc41245	-0.005983623
14	0x3c170179	0.00921666
15	0xbcc1f824	-0.023677893
16	0xbd17991a	-0.037011243
17	0x3e202e28	0.15642607
18	0x3da44424	0.08020809
19	0xbca28188	-0.019837156
20	0xbb32d280	-0.0027286112
21	0xbcaf4729	-0.021396236
22	0xbcc651c5	-0.024208913
23	0xbe1fceee	-0.15606281
24	0xbe2e9c7c	-0.17051882
25	0xbc04a9f8	-0.008097164
26	0xbd82765c	-0.063702315
27	0x3c8463d4	0.016160883
28	0x3d3c8408	0.046024352
29	0x3ab3b35e	0.0013710072
30	0xbd407b0f	-0.046992358
31	0xbe725941	-0.2366686
32	0xbbc549eb	-0.0060207746
33	0xbcc1fdf6	-0.023680668
34	0xba92e90d	-0.001120837
35	0x3d2983f4	0.041385606
36	0x3d7db492	0.061939783
37	0x3d75a4d6	0.059971653
38	0xbe96732c	-0.29384744
39	0x3da96029	0.08270294
40	0xbc3304d5	-0.010926445
41	0x3ccec1c9	0.025238888
42	0x3d0395aa	0.032125153
43	0xbdece00e	-0.115661725
44	0x3e04a315	0.12952836
45	0xbe1e217e	-0.15442464
46	0xbe53b5b4	-0.20674783
47	0xbb5e5003	-0.0033922202
48	0x3c2eea8a	0.010676036
49	0xbbd91402	-0.0066246996
50	0x3b047e38	0.0020216834
51	0x3d32ed1c	0.043683156
52	0xbdce9b84	-0.10088256
53	0x3d169417	0.036762323
54	0x3d93ce5b	0.072170936
55	0x3c8eda74	0.017438151
56	0xbd78c9ca	-0.060739316
57	0x3e08190f	0.13290809
58	0xbc8fb05f	-0.017540155
59	0x3d50b72d	0.05095594
60	0x3d9fa7c6	0.07795672
61	0x3ca501f6	0.020142537
62	0x3d5a6b5b	0.05332504
63	0xbdf561f8	-0.11981577
64	0xbc291ef3	-0.01032232
65	0x3c5994c3	0.013280096
66	0xbddaf87d	-0.10691927
67	0x3dbe36fd	0.09287832
68	0xbc875f47	-0.016524924
69	0xbd21ab5c	-0.03947006
70	0x3e1521ce	0.14563677
71	0xbca562e6	-0.02018876
72	0xbd585408	-0.052814513
73	0xbbe7f518	-0.007078778
74	0x3a2068b4	0.00061191176
75	0x3bfb6958	0.00767247
76	0xbb09dbc0	-0.0021035522
77	0x3d71e7ae	0.059058838
78	0xbe074148	-0.13208497
79	0x3db7fca5	0.08983735
80	0x3ca08126	0.019592833
81	0x3c8382f2	0.01605365
82	0x3e4209fe	0.18949124
83	0x3d1b096c	0.037850782
84	0x3ccec048	0.025238171
85	0xbcce4f62	-0.025184337
86	0xbd743496	-0.059620462
87	0x3cdc580b	0.02689745
88	0x3c617f25	0.013763224
89	0x3d4d3f1e	0.05010902
90	0x3db53044	0.088470966
91	0xbe47e024	-0.19519097
92	0xbd43955e	-0.04774987
93	0x3dae0587	0.08497148
94	0xbeb88787	-0.360409
95	0xbeb6e251	-0.3571954
96	0x3bd71c85	0.006564679
97	0xbdf14e23	-0.117824815
98	0xbdce34c5	-0.10068659
99	0x3e25bb78	0.16184795
100	0xbb4e856b	-0.0031512629
101	0x3eaa0e5b	0.33214077
102	0xbc93d79e	-0.01804715
103	0x3d544c5b	0.05183063
104	0x3ba0c990	0.0049068406
105	0xbe4f2d85	-0.20232208
106	0x3a851d32	0.0010155796
107	0xbc7ee7aa	-0.015558163
108	0xbdc26b75	-0.09493152
109	0x3e1e2d83	0.15447049
110	0xbe231edb	-0.15929739
111	0xbe0b6d48	-0.13615906
112	0xbd5877a4	-0.052848473
113	0xbdafcedd	-0.08584378
114	0xba5b5ec1	-0.00083683064
115	0x3e05121b	0.12995188
116	0xbdd1bfb0	-0.102416396
117	0xbd5e63ca	-0.054294385
118	0x3cfcca71	0.03085825
119	0x3d55857e	0.05212926
120	0xbd22ee23	-0.039777886
121	0xbcd2805b	-0.02569597
122	0xbc28ea48	-0.010309763
123	0xbb8a0c32	-0.0042128796
124	0xbe78e23e	-0.24305055
125	0x3d2cda70	0.042200506
126	0xbcad1493	-0.021127975
127	0x3dd9edfe	0.106410965
128	0xbbd433e5	-0.006475913
129	0xbc077f48	-0.008270092
130	0x3d98bc2a	0.074577644
131	0x3d8bdfd0	0.06829798
132	0xbd7bd913	-0.061486315
133	0xbdf21286	-0.11819939
134	0xbd82cb53	-0.06386437
135	0x3e02375b	0.12716429
136	0x39247b60	0.0001568622
137	0x3ddd51dc	0.10806629
138	0xbe092bb8	-0.13395584
139	0x3c3b0b27	0.011416233
140	0x3cdd3304	0.027001865
141	0x3d28eba7	0.04124036
142	0xbce1e2c4	-0.02757395
143	0x3d005f0e	0.03134065
144	0xbd12ba00	-0.035821915
145	0x3d5d9df3	0.05410571
146	0x3d795b52	0.060878105
147	0xbd87a65d	-0.06623528
148	0x3e058fbc	0.13043112
149	0x3cad0142	0.021118764
150	0x3d44c141	0.048035864
151	0x3d94a67d	0.072583176
152	0x3cc19944	0.023632653
153	0xbd1652f4	-0.036700204
154	0x3c2587b2	0.010103153
155	0x3c63fd73	0.0139154075
156	0xbcfff0a6	-0.03124268
157	0xbe4e5d16	-0.20152697
158	0xbd262fdc	-0.040572986
159	0x3d2e5344	0.042559877
160	0x3cf09318	0.029367015
161	0xbcc23467	-0.023706628
162	0x3d81c2e5	0.06336001
163	0xbb83567c	-0.0040081125
164	0x3c05f310	0.008175626
165	0x3d84f185	0.06491379
166	0x3d84863d	0.064709164
167	0x3e3d646d	0.1849534
168	0x3eb4ab31	0.3528686
169	0xbd2c5be8	-0.042079836
170	0x3dd96365	0.10614661
171	0xbd2cd108	-0.042191535
172	0x3d49369b	0.04912434
173	0x3cf1e752	0.029529247
174	0x3d7c42bb	0.061587077
175	0xbd3f6f4b	-0.046736997
176	0xba8d1785	-0.0010764456
177	0xbc4a0f06	-0.012332683
178	0xbd0d22f5	-0.034457166
179	0x3e533863	0.20626979
180	0x3d825f48	0.0636583
181	0x3cca71b2	0.024712417
182	0x3c6fdeaa	0.01464049
183	0xbd37823e	-0.044801943
184	0x3e04b63d	0.12960143
185	0x3e49ab03	0.19694142
186	0xbe556e9d	-0.20842977
187	0x3e051c36	0.12999043
188	0x3bcc2ce0	0.0062309355
189	0xbe1163d9	-0.14198245
190	0xbe917c6d	-0.28415242
191	0xbe2cbbae	-0.16868469
192	0x3d9c9a48	0.07646614
193	0xbe47651d	-0.19472165
194	0xbd9fb338	-0.07797855
195	0x3ccd7ada	0.025082994
196	0x3e57522d	0.21027441
197	0xbd0a24a2	-0.033726342
198	0x3d859ad6	0.06523673
199	0x3e025985	0.12729461
200	0xbafbaeee	-0.0019201913
201	0x3d3547e9	0.044258032
202	0xbc0973b5	-0.008389403
203	0x3d1f9770	0.03896278
204	0x3d288a26	0.041147374
205	0x3de5ee26	0.11227064
206	0xbba0c74a	-0.0049065696
207	0xbcad6aaf	-0.021169035
208	0x3b26c224	0.0025445307
209	0x3de0a279	0.10968489
210	0x3dd09587	0.1018477
211	0xbd220d5e	-0.03956353
212	0x3d8d05a4	0.068858415
213	0x3d383bb4	0.044978812
214	0xbc8205c5	-0.015871892
215	0x3d426c03	0.04746629
216	0x3ccef9c4	0.025265582
217	0xbe17d83a	-0.14828578
218	0x3dc80135	0.09765855
219	0xbcc48784	-0.0239904
220	0xbb5988e8	-0.0033193175
221	0xbcacbb32	-0.021085355
222	0xbe2e66b3	-0.17031364
223	0xbdd87366	-0.105688855
224	0xbd88052e	-0.06641613
225	0x3e9bc95d	0.30427065
226	0x3cf1267d	0.029437298
227	0x3e0b5f72	0.13610628
228	0xbe646a62	-0.22306207
229	0xbce41a49	-0.027844565
230	0xbcfb7304	-0.030694492
231	0x3e0da152	0.1383107
232	0x3cd74924	0.026279993
233	0xbc95e53b	-0.018297782
234	0x3ddb4fd8	0.10708588
235	0xbdb0cb65	-0.086325444
236	0xbc172030	-0.009223983
237	0x3db6387d	0.08897493
238	0xbe0f0f0a	-0.1397058
239	0x3e7fd9a8	0.24985373
240	0x3d3030a3	0.043015134
241	0x3a523121	0.0008018185
242	0x3dbe097b	0.09279152
243	0xbcd3e385	-0.025865326
244	0x3ec8253e	0.39090914
245	0x3dcf7e15	0.1013147
246	0x3de210bb	0.11038347
247	0x3e542cfa	0.20720282
248	0x3cac6a56	0.021046799
249	0xbe19c2d8	-0.15015733
250	0x3d3e499e	0.046456926
251	0xbd9893c9	-0.07450063
252	0xbe6dfad2	-0.23240212
253	0xbca67015	-0.020317117
254	0x3e0eb118	0.13934743
255	0x3ce5236e	0.027970996

fc3.bias f4 [4]
0	0x3e190446	0.14943036
1	0x3de54dba	0.11196466
2	0x3dbaf860	0.09129405
3	0x3de89d33	0.11358108
