target_net.pth (torch, 285286 bytes, 6 tensors)

fc1.weight f4 [256, 14]
0	0x3e29baf2	0.1657522
1	0xbe8523ae	-0.26003784
2	0xbea17992	-0.31538063
3	0x3e8065ca	0.2507766
4	0x3e0d3fc7	0.1379386
5	0xbe48e837	-0.19619833
6	0xbd33479c	-0.043769464
7	0x3daa417f	0.08313274
8	0xbe49a434	-0.19691545
9	0x3e0b7f12	0.13622692
10	0x3c0039de	0.007826297
11	0xbed209c6	-0.41023082
12	0x3e73e145	0.23816402
13	0x3e4086cd	0.18801422
14	0xbe88a9b8	-0.26691985
15	0xbd232acf	-0.039835747
16	0xbe5eede3	-0.21770434
17	0x3ecc087a	0.39850217
18	0xbe0c0e3d	-0.13677306
19	0x3df6d0af	0.12051522
20	0x3ea05b74	0.31319773
21	0xbb6df64e	-0.003631014
22	0xbe5dec5f	-0.216722
23	0xbe37cdbe	-0.17949578
24	0xbdfa51f1	-0.1222266
25	0x3e0e0688	0.13869679
26	0x3e90c857	0.28277847
27	0x3da4e582	0.08051588
28	0xbeba56d6	-0.36394376
29	0x3f1e172b	0.617541
30	0xbdf48ae3	-0.11940553
31	0x3e1484df	0.14503811
32	0xbe3bd367	-0.18342362
33	0xbe5b8249	-0.21436419
34	0xbdcea477	-0.10089963
35	0x3e932e07	0.28746054
36	0xbd5ef072	-0.054428525
37	0x3e991366	0.29897612
38	0xbe460005	-0.19335945
39	0xbe22fcb8	-0.15916717
40	0x3d6bd008	0.05757144
41	0xbe720e09	-0.23638166
42	0xbeb2e384	-0.34939206
43	0xbd3338a5	-0.043755192
44	0xbe58dc4e	-0.2117779
45	0xbe83898b	-0.25690874
46	0x3e1d75a9	0.15376915
47	0xbe28fd27	-0.1650282
48	0x3c82c4d0	0.015962988
49	0xbdb9c426	-0.090706155
50	0x3abd2204	0.0014429693
51	0x3cb5d6e9	0.022197204
52	0xbe41dcf1	-0.18931939
53	0x3e5ea260	0.21741629
54	0xbe87e725	-0.26543537
55	0xbee6e072	-0.45093113
56	0xbf65e6fe	-0.8980559
57	0x3dcaa736	0.09895174
58	0x3d58a844	0.052894846
59	0xbe2ae903	-0.1669045
60	0xbc7fa72a	-0.01560382
61	0xbd8741dc	-0.066043586
62	0x3e958e2f	0.2921004
63	0xbe1f582f	-0.15560983
64	0x3e2e9901	0.17050554
65	0xbdea75f8	-0.11448282
66	0xbdd70e5f	-0.10500788
67	0xbdb87bd4	-0.09007993
68	0x3e0707fd	0.13186641
69	0x3d1abfba	0.0377805
70	0x3e6681b7	0.2251042
71	0x3d310dc6	0.043226026
72	0xbe85aa21	-0.2610636
73	0xbe39083a	-0.18069544
74	0x3e0add09	0.1356088
75	0xbdaf187f	-0.08549594
76	0xbe0c658b	-0.1371061
77	0xbedb2720	-0.42803288
78	0x3e87798d	0.26459923
79	0x3bea4661	0.007149503
80	0xbeafffaa	-0.34374744
81	0x39a58e4c	0.00031577272
82	0x3e708af4	0.23490506
83	0xbf0fb00c	-0.56128
84	0xbf03ae14	-0.514375
85	0xbd14da4d	-0.036341
86	0x3e869a9f	0.26289842
87	0xbe946700	-0.28984833
88	0xbdcd6519	-0.100290485
89	0x3b6f6a40	0.0036531836
90	0x3e686079	0.22693051
91	0xbe7f15c4	-0.24910647
92	0xbcabced3	-0.020972645
93	0xbd1bbee2	-0.038023837
94	0x3d4597fc	0.048240647
95	0x3baca3d4	0.0052685533
96	0xbd39083f	-0.04517388
97	0xbd80a46d	-0.06281362
98	0x3df8ebd7	0.12154358
99	0xbe82fd9b	-0.2558411
100	0x3d5e49dd	0.05426966
101	0x3ef6a03a	0.48169118
102	0x3dd4e680	0.10395527
103	0xbc995247	-0.01871599
104	0x3d846896	0.06465261
105	0xbe17d7ba	-0.14828387
106	0xbe47bdae	-0.19505951
107	0x3e0b16df	0.13582943
108	0x3e7f31f5	0.24921401
109	0xbe6bbf40	-0.23022175
110	0xbebe94e0	-0.37222958
111	0x3e196988	0.14981663
112	0x3e6e9822	0.23300222
113	0xbd1be3ed	-0.038059164
114	0x3e55ce9b	0.20879595
115	0x3d34290d	0.04398446
116	0x3d77ec33	0.06052799
117	0x3e2ce84c	0.16885489
118	0xbe9e4f0a	-0.30919677
119	0x3d332d53	0.043744396
120	0xbe23eedf	-0.16009091
121	0x3d79b738	0.060965747
122	0xbdad1786	-0.08451752
123	0xbd41906b	-0.04725687
124	0xbe39124e	-0.18073389
125	0xbe3125f6	-0.17299637
126	0xbeca6350	-0.39528894
127	0x3e3bcef6	0.18340668
128	0x3dfe403c	0.124145955
129	0xbe07a03c	-0.13244718
130	0xbde98013	-0.11401381
131	0xbc2c2377	-0.010506502
132	0xbe757597	-0.23970638
133	0xbec6d9e1	-0.38838103
134	0x3db069b0	0.08613908
135	0x3e786a62	0.24259332
136	0xbd5af0a5	-0.053452153
137	0xbe8e635b	-0.27810177
138	0x3e0807aa	0.13284174
139	0xbd956422	-0.072944894
140	0x3ea26d6f	0.31724116
141	0x3ea4b173	0.32166633
142	0x3e8dc53d	0.27689543
143	0xbe3f8d30	-0.18706203
144	0xbcc64522	-0.024202887
145	0x3e5f2105	0.2178994
146	0xbe49799e	-0.196753
147	0xbcbc8a80	-0.02301526
148	0x3d70b5d3	0.05876715
149	0x3d27850b	0.040898364
150	0xbda7f994	-0.082019
151	0x3d961047	0.073273234
152	0xbe97a373	-0.2961689
153	0xbe8d0a57	-0.2754695
154	0xbe09707e	-0.13421819
155	0xbe5c8864	-0.21536404
156	0xbe133a7b	-0.14377777
157	0x3c4019f9	0.011724942
158	0x3e172d2f	0.1476333
159	0xbd557b12	-0.052119322
160	0xbe9d8377	-0.30764362
161	0x3eb80d5c	0.35947692
162	0xbd716c06	-0.05894091
163	0x3c62c692	0.013841288
164	0xbdd7933d	-0.1052613
165	0x3ecc9d30	0.39963675
166	0xbe5cae8a	-0.21550956
167	0x3e0ff336	0.14057621
168	0x3e48fd4d	0.19627877
169	0xbedf7e4a	-0.43651038
170	0x3dc15a74	0.09441081
171	0x3dd31748	0.10307175
172	0xbd755a9b	-0.05990086
173	0x3e3c6fec	0.1840207
174	0xbdc90194	-0.09814754
175	0x3d8620b9	0.0654921
176	0xbec217c5	-0.3790876
177	0x3e3bc0bb	0.1833524
178	0x3d87476c	0.066054195
179	0xbdf5c638	-0.12000698
180	0x3dc56506	0.09638409
181	0xbe5163b7	-0.20448194
182	0x3c8deace	0.017323878
183	0x3ea0690c	0.31330144
184	0x3e8fb369	0.28066567
185	0xbe043152	-0.12909439
186	0xbe18d852	-0.1492627
187	0x3e920b57	0.28524277
188	0x3d311b95	0.043239195
189	0xbec265ad	-0.37968197
190	0x3ea543ce	0.32278293
191	0xbd45eaf8	-0.048319787
192	0x3e3f9793	0.18710165
193	0x3d6594a2	0.05604995
194	0x3da7ef40	0.0819993
195	0xbea59190	-0.32337618
196	0xbe792954	-0.24332172
197	0x3de0abe3	0.10970285
198	0x3e7543f1	0.23951699
199	0x391c285e	0.00014892357
200	0x3ed8950c	0.42301214
201	0x3d6b1d17	0.05740079
202	0xbde6003f	-0.11230516
203	0xbd92753e	-0.071512684
204	0xbd047b8b	-0.032344382
205	0x3e624e65	0.22100218
206	0xbec2fa3f	-0.38081548
207	0xbeca0914	-0.3946005
208	0xbe927197	-0.28602287
209	0x3ccc6fd6	0.024955671
210	0xbf0cf33c	-0.55058646
211	0x3de1acd3	0.11019292
212	0x3e19834c	0.14991492
213	0xbe96c0b2	-0.2944389
214	0xbd4c4145	-0.049866933
215	0xbdc50812	-0.0962068
216	0xbea2a8a8	-0.317693
217	0x3e2a4972	0.1662958
218	0xbd53a61f	-0.051672097
219	0xbd990196	-0.074710056
220	0x3d1ee1cf	0.038789567
221	0x3e6c135e	0.23054263
222	0xbd4e7546	-0.05040481
223	0xbe98ab3f	-0.2981815
224	0x3e208444	0.15675455
225	0xbe5f7a6f	-0.21824048
226	0x3e6138dc	0.21994346
227	0xbd3e5f60	-0.046477675
228	0x3d99f607	0.07517629
229	0xbec8bc4b	-0.39206156
230	0x3ebbfbe2	0.3671561
231	0xbecfd59b	-0.40592656
232	0xbe9c34f2	-0.30509144
233	0xbe0d0eee	-0.13775226
234	0xbbb2a8b3	-0.0054522394
235	0x3d8dc5fa	0.06922527
236	0xbe698c49	-0.22807421
237	0xbd7e8e62	-0.062147506
238	0x3dab9023	0.08377101
239	0xbc93284a	-0.017963547
240	0xbc1e53e9	-0.00966356
241	0x3e2eb4a3	0.17061095
242	0x3e026ea1	0.12737514
243	0x3e35ffad	0.17773314
244	0x3daf13ce	0.08548699
245	0xbeeb8541	-0.46000102
246	0xbe9596e4	-0.29216683
247	0xbe09bb35	-0.1345032
248	0xbe5d847d	-0.21632572
249	0xbe3be3b0	-0.18348575
250	0x3d0843a4	0.033267632
251	0x3dcbdc5c	0.099541396
252	0x3e41e29a	0.18934098
253	0x3e1cce50	0.15313077
254	0x3d3265c2	0.043554075
255	0x3dda5799	0.10661239

fc1.bias f4 [256]
0	0xbd3c0266	-0.045900725
1	0xbe2abb0a	-0.16672912
2	0xbe512ce1	-0.20427276
3	0x3d85e024	0.06536892
4	0xbdadc35c	-0.084845275
5	0xbe8a4042	-0.2700215
6	0xbddc0324	-0.107427865
7	0x3cc14a50	0.023595005
8	0x3dcc6fe9	0.09982283
9	0x3df3e661	0.11909176
10	0xbdd94df2	-0.1061057
11	0x3e7946c0	0.24343395
12	0xbe8e2cb1	-0.27768472
13	0xbda8c0f7	-0.0823993
14	0x3e346341	0.17615987
15	0xbd745db7	-0.059659686
16	0x3e025306	0.12726983
17	0xbcf7d4dc	-0.030252866
18	0xbdaeed58	-0.085413635
19	0xbe8a63f7	-0.27029392
20	0x3d29c089	0.04144338
21	0x3dd79d91	0.105281
22	0x3e67a885	0.22622879
23	0x3d0bd47c	0.034138188
24	0xbe3cee02	-0.18450168
25	0x3d90bb37	0.070669584
26	0xbda1eea2	-0.07906844
27	0xbce73fda	-0.028228689
28	0xbd5d3b50	-0.054011643
29	0x3dbc8c0d	0.092064
30	0xbe15dc92	-0.14634922
31	0xbe3adaed	-0.18247576
32	0xbce708dd	-0.028202469
33	0xbdc19684	-0.09452537
34	0x3dd0d068	0.10196
35	0xbe0ba109	-0.13635649
36	0xbe94124f	-0.28920218
37	0xbda0a16a	-0.07843287
38	0xbd45ec6d	-0.048321176
39	0x3e70639a	0.23475495
40	0x3b9c3ae1	0.004767761
41	0xbe64b27e	-0.22333714
42	0x3d98608f	0.07440292
43	0xbec3cff7	-0.38244602
44	0x3dafe871	0.085892566
45	0xbdf4250e	-0.1192113
46	0xbd955efc	-0.072935075
47	0x3c0a0f48	0.008426495
48	0x3d1284ff	0.035771366
49	0xbce1338b	-0.027490398
50	0xbc2435dd	-0.010022608
51	0xbd265dba	-0.04061673
52	0x3cee879e	0.029117402
53	0xbe04f902	-0.12985614
54	0x3e08080b	0.13284318
55	0x3e634e63	0.22197871
56	0xbe158fd5	-0.14605649
57	0xbd047fda	-0.03234849
58	0xbd7ce0c4	-0.06173779
59	0x3dd68481	0.10474492
60	0xbe547b44	-0.20750147
61	0xbd8d8a78	-0.069111764
62	0xbe002623	-0.12514548
63	0x3d3e16e9	0.046408568
64	0x3e6bf419	0.23042335
65	0xbd2a4a7c	-0.04157494
66	0xbd8dfba5	-0.06932763
67	0xbe20bd17	-0.15697132
68	0xbdde8bea	-0.1086653
69	0x3c15f9e7	0.00915382
70	0x3e7be9f2	0.24600962
71	0x3dc55ddf	0.09637045
72	0x3d05d747	0.032676008
73	0xbe84c748	-0.2593329
74	0xbe831e4c	-0.25609052
75	0x3dca910d	0.098909475
76	0x3ee14d83	0.4400445
77	0xbe7a3acb	-0.2443649
78	0x3e32805d	0.17431779
79	0xbe9069a8	-0.2820561
80	0xbdbf195f	-0.09331011
81	0x3e586605	0.21132667
82	0xbe85caea	-0.26131374
83	0x3e067c25	0.13133295
84	0x3e0bc353	0.13648729
85	0xbdd1c166	-0.10241966
86	0x3d968e0b	0.07351311
87	0xbd1e169a	-0.038595773
88	0x3dd03e45	0.10168127
89	0xbc4b363b	-0.012403066
90	0x3ea837cd	0.32855073
91	0x3dfe4d31	0.12417067
92	0xbe7e1b44	-0.24815089
93	0xbd860a84	-0.065449744
94	0xbe858d0f	-0.26084182
95	0xbc7672e7	-0.015042043
96	0x3ddd48a9	0.108048744
97	0x3ea19433	0.3155838
98	0xbb840f58	-0.0040301494
99	0x3ba2b170	0.004965
100	0xbc8020ea	-0.015640695
101	0xbdd79ebd	-0.10528324
102	0x3e1187e8	0.14212
103	0xbe115a14	-0.14194518
104	0x3e2adfb0	0.16686893
105	0x3db92c34	0.09041634
106	0xbda27578	-0.07932562
107	0xbe159a76	-0.14609703
108	0x3dcd2096	0.10015981
109	0xbe86969d	-0.26286784
110	0xbdf4bfed	-0.119506694
111	0xbdd8a613	-0.10578551
112	0x3e211042	0.15728858
113	0xbe5f6084	-0.21814162
114	0x3e45700e	0.19281027
115	0xbdbd7ae2	-0.09251954
116	0xbe933e04	-0.28758252
117	0xbe3a66b7	-0.18203245
118	0xbdbcaee9	-0.09213049
119	0x3d4a6674	0.049414113
120	0x3c27ecc9	0.010249325
121	0x3d8d97e4	0.069137365
122	0xbd9eab14	-0.07747474
123	0xbb96932f	-0.0045951824
124	0x3e3bd52f	0.18343042
125	0x3dd8be94	0.10583225
126	0xbd650ca2	-0.05592025
127	0x3cf8db95	0.030378142
128	0x3e663a59	0.22483195
129	0xbe717e5e	-0.23583362
130	0xbd8a698a	-0.06758411
131	0xbd9a9dde	-0.07549642
132	0x3ddfc1ad	0.109256126
133	0x3e02e0d2	0.12781075
134	0x3e534035	0.20629962
135	0x3e57797c	0.21042436
136	0xbd82c81a	-0.063858226
137	0xbd412cb4	-0.047161773
138	0xbe89805b	-0.2685574
139	0xbe1349c9	-0.14383616
140	0x3e404a30	0.187783
141	0xbd278b7a	-0.0409045
142	0x3ddda1d0	0.10821879
143	0xbc976b3b	-0.018483749
144	0xbe7d3c6c	-0.2473008
145	0xbe07bdfb	-0.13256066
146	0xbc8031c5	-0.015648732
147	0x3d606fd9	0.054794166
148	0xbdd412ae	-0.10355125
149	0x3cd0985b	0.025463274
150	0xbe689a73	-0.22715168
151	0x3c023ecf	0.007949545
152	0xbe88d8dd	-0.26727954
153	0xbe4badb2	-0.19890478
154	0x3e33c3da	0.1755518
155	0xbde79a1b	-0.1130869
156	0x3e457c2c	0.19285649
157	0xbe58b533	-0.21162872
158	0x3de2652a	0.11054452
159	0xbe4a71d3	-0.19769983
160	0xbe551a97	-0.20810924
161	0xbd5b8c81	-0.05360079
162	0xbe7df62d	-0.2480094
163	0x3e097193	0.13422231
164	0x3c37dc73	0.011221993
165	0xbe0d81d9	-0.13819064
166	0xbb650516	-0.0034945658
167	0x3e01ed4c	0.12688178
168	0xbe1e47ad	-0.1545703
169	0xbc1216e5	-0.008916591
170	0xbe484237	-0.19556509
171	0x3d37dd60	0.044888854
172	0xbd9c9b20	-0.07646775
173	0xbdd09228	-0.10184127
174	0xbe2cc057	-0.16870247
175	0xbd36d61c	-0.044637784
176	0xbe3b2d18	-0.1827892
177	0xbc6fc91c	-0.014635351
178	0xbd2dda36	-0.04244443
179	0xbe6e5cc9	-0.23277582
180	0x3bf8a744	0.007588299
181	0x3e7eefdd	0.24896188
182	0x3e126435	0.14296038
183	0x3e38843d	0.18019195
184	0x3e282bcf	0.16422962
185	0xbcdf92e8	-0.02729173
186	0xbdb4c863	-0.08827283
187	0xbdf16fd9	-0.11788911
188	0x3e54e95d	0.20792146
189	0x3d368ee1	0.044569854
190	0xbdeb797e	-0.11497782
191	0x3de5f8c7	0.11229091
192	0x3d496a30	0.049173534
193	0xbe61e161	-0.22058631
194	0xbe2ddae1	-0.16978027
195	0x3e262db8	0.16228378
196	0xbe08e69c	-0.1336922
197	0xbd9e5586	-0.07731156
198	0xbdd758ab	-0.10514959
199	0xbe5faed8	-0.21844041
200	0xbe09a306	-0.13441095
201	0x3d8aa88d	0.0677043
202	0x3d122dbd	0.03568815
203	0x3e4b6689	0.19863333
204	0xbe62ac18	-0.22135961
205	0xbe3d461c	-0.18483776
206	0xbe65525f	-0.22394703
207	0xbd3beeb5	-0.045881946
208	0xbe4e8866	-0.2016922
209	0xbea37b8b	-0.31930193
210	0xbe632831	-0.221833
211	0x3d9e9103	0.077425025
212	0xbed0df5d	-0.40795413
213	0x3dd96125	0.10614232
214	0xbe13dcdf	-0.14439724
215	0x3ce3eea3	0.027823752
216	0xbe43860a	-0.190941
217	0xbe91b4e8	-0.28458333
218	0x3cb5229c	0.02211123
219	0xbe3fc9f3	-0.18729381
220	0xbe93043d	-0.2871417
221	0xbe7e678d	-0.24844189
222	0x3e25d91e	0.16196105
223	0x3e8ff6de	0.28118032
224	0x3dd1afba	0.10238595
225	0xbbd6fdd1	-0.006561019
226	0x3d730de8	0.059339434
227	0xbcbe8a4e	-0.023259308
228	0xbc513904	-0.012769941
229	0xbdd33a00	-0.10313797
230	0xbe281a07	-0.16416179
231	0x3cea9ea1	0.028640093
232	0xbe61b3bb	-0.22041218
233	0xbbf7e14f	-0.0075647007
234	0x3e059f37	0.13049017
235	0xbe9e8b97	-0.30965874
236	0x3e3772ea	0.1791493
237	0xbaad0bec	-0.0013202406
238	0xbe6ee848	-0.23330796
239	0xbe20c590	-0.15700364
240	0x3b98fbdc	0.004668696
241	0xbe5bcc48	-0.21464646
242	0xbe87013e	-0.26368135
243	0x3d4a4b6d	0.049388338
244	0xbe4836a6	-0.19552097
245	0xbe75ca19	-0.24002875
246	0x3d103e51	0.03521568
247	0x3de3e531	0.11127699
248	0xbbe2e6ac	-0.006924471
249	0x3d2e950c	0.04262261
250	0x3e15bb7b	0.146223
251	0xbc8da459	-0.017290281
252	0x3e65cbda	0.22441044
253	0xbe52e190	-0.20593858
254	0xbcc22c3a	-0.02370273
255	0xbd022f2b	-0.031783264

fc2.weight f4 [256, 256]
0	0xbe116695	-0.14199288
1	0xbc894bce	-0.01675978
2	0xbed51656	-0.41618603
3	0xbe3c922e	-0.18415138
4	0xbc92454e	-0.017855313
5	0xbeb8f6d4	-0.36125815
6	0xbd836a60	-0.06416774
7	0xbdc3ef90	-0.09567177
8	0x3d27a6d1	0.040930573
9	0xbc8c93fa	-0.017160404
10	0x3e1b3d02	0.15159991
11	0xbe5d6efa	-0.21624365
12	0xbd9f88b6	-0.077897474
13	0x3d9396f1	0.07206524
14	0xbdd9e860	-0.10640025
15	0xbc997d8f	-0.018736629
16	0x3cf52166	0.029923152
17	0xbd9be7e5	-0.0761259
18	0x3d3fd9f6	0.046838723
19	0xbd926551	-0.07148231
20	0xbe785cb3	-0.24254112
21	0x379e9b33	1.8907338e-05
22	0xbd623446	-0.055225633
23	0xbe29c397	-0.16578518
24	0xbdd9db28	-0.10637504
25	0xbd421bb2	-0.047389694
26	0xbe8717eb	-0.26385435
27	0xbdee7ca1	-0.11644865
28	0xbc1f86bf	-0.009736716
29	0xbe0da7f4	-0.138336
30	0x3e082119	0.13293876
31	0x3e7a283b	0.24429409
32	0xbd889287	-0.06668573
33	0xbe581499	-0.21101607
34	0xbd33e10b	-0.04391579
35	0xbe9f2ed7	-0.31090423
36	0x3d2e301e	0.042526357
37	0xbc683269	-0.014172175
38	0xbc0ddb10	-0.008658186
39	0xbd3afb12	-0.045649596
40	0xbaee25bc	-0.0018169205
41	0xbd9e58b3	-0.07731762
42	0xbe70d8ee	-0.23520252
43	0x3dde2af3	0.10848036
44	0xbd79ab19	-0.060954187
45	0xbd3937fe	-0.045219414
46	0x3e36d92c	0.17856282
47	0xbd49efa8	-0.04930082
48	0xbbbfcb0f	-0.005853064
49	0xbd824f0d	-0.06362734
50	0x3df85256	0.12125079
51	0xbd150c19	-0.03638849
52	0xbc233858	-0.009962164
53	0xbe4d8202	-0.20069125
54	0x3d8a075f	0.06739687
55	0xbd094889	-0.03351644
56	0xbe9cd05b	-0.30627713
57	0xbcbe4ede	-0.023230966
58	0x3dc85e4e	0.09783612
59	0x3daa1f77	0.08306783
60	0xbd728821	-0.059211854
61	0x3db2faf7	0.08739274
62	0x3bc8c9a9	0.0061275554
63	0xbe77cb80	-0.24198723
64	0xbe40b821	-0.1882024
65	0xbe89275f	-0.2678785
66	0x3ba9c0e4	0.005180465
67	0xbbb3a1c4	-0.0054819304
68	0xbc3ce96a	-0.01153026
69	0xbc6d73ee	-0.014492972
70	0xbe0185c7	-0.12648688
71	0xbce254eb	-0.027628383
72	0x3d2511c6	0.040300153
73	0xbd91f318	-0.071264446
74	0x3db1a6dc	0.08674404
75	0xbd9fa055	-0.07794253
76	0xbe2fcba6	-0.1716753
77	0x3d9e7cd2	0.07738651
78	0xbd3943bc	-0.045230612
79	0x3e75b842	0.2399607
80	0xbda5efd3	-0.081023835
81	0xbde303af	-0.11084687
82	0xbd9d936a	-0.076941326
83	0xbd468628	-0.048467785
84	0xbc16184a	-0.009161064
85	0xbd6b4192	-0.05743558
86	0xbd4ff889	-0.05077413
87	0xbd9705ba	-0.07374139
88	0xbd839c30	-0.06426275
89	0xbe088e45	-0.13335522
90	0xbcea6881	-0.028614284
91	0xbd786cd8	-0.060650676
92	0xbe11fa41	-0.1425562
93	0x3d986950	0.07441962
94	0xbbe2dbca	-0.0069231736
95	0xbe297d13	-0.16551618
96	0xbd6337d1	-0.055473153
97	0xbd4c52cf	-0.04988366
98	0xbd483ad8	-0.048884243
99	0xba2ad9d4	-0.0006517444
100	0xbcc5509c	-0.02408629
101	0x3c8ca3dd	0.01716798
102	0x3c6c2be2	0.014414759
103	0xbdf420bf	-0.11920308
104	0x3d0c61c2	0.034272917
105	0xbd6d6141	-0.057954077
106	0xbe0d60fc	-0.13806528
107	0x3d98d1ef	0.07461917
108	0xbe16b819	-0.14718665
109	0xbd1a35e1	-0.03764904
110	0x3e1afeb6	0.15136227
111	0xbcb5e251	-0.022202643
112	0x3de9cd6b	0.114161335
113	0x3da31f71	0.07964981
114	0x3da39f15	0.07989327
115	0xbe4eb3bd	-0.20185752
116	0x3dc68d6f	0.09694945
117	0xbc2ad1fc	-0.010426041
118	0x3e247bc4	0.16062838
119	0xbdc441c1	-0.09582854
120	0xbd8591cd	-0.0652195
121	0xbe4e3652	-0.20137909
122	0x3ca136d1	0.019679459
123	0xbe29afe3	-0.16571002
124	0xbd46de15	-0.048551638
125	0xbdbac7ab	-0.09120115
126	0x3e3ae3c6	0.18250951
127	0x3d2d4d0a	0.0423098
128	0xbe605a49	-0.21909441
129	0x3e17f651	0.14840056
130	0xbed842cf	-0.4223847
131	0x3d382891	0.044960562
132	0x3cfac03a	0.030609239
133	0xbdbb0010	-0.09130871
134	0xbe44b3e5	-0.1920925
135	0x3c4ca083	0.012489441
136	0x3d8c6698	0.06855506
137	0x3dd97071	0.106171496
138	0x3e008f26	0.12554607
139	0xbda4c35e	-0.08045076
140	0xbea068b7	-0.3132989
141	0x3d18a3fc	0.037265763
142	0xbe61f00e	-0.2206423
143	0xbc4a2503	-0.012337926
144	0xbdde5345	-0.10855726
145	0xbde115f1	-0.10990513
146	0x3b99b5f8	0.004690882
147	0xbc99ed66	-0.018789958
148	0x3e25ef86	0.16204652
149	0xbd8f3759	-0.069929786
150	0xbdddffaf	-0.108397834
151	0x3d636fe8	0.055526644
152	0xbdc36802	-0.09541322
153	0x3e448d5d	0.19194551
154	0xbde5ef24	-0.11227253
155	0xbdf6f1f0	-0.12057865
156	0xbdd0174f	-0.10160696
157	0xbd206d7e	-0.03916692
158	0x3cd5e813	0.026111638
159	0xbe09e1e3	-0.13465075
160	0x3d17f595	0.03709944
161	0x3e92da90	0.28682375
162	0xbe3213e6	-0.17390403
163	0xbdb88f7f	-0.09011745
164	0x3be13c1b	0.00687362
165	0x3d2513e1	0.04030216
166	0x3cc7c061	0.024383726
167	0x3c48830f	0.012238278
168	0xbd3b84b6	-0.04578086
169	0xbd2a81b6	-0.04162761
170	0xbe1a16ae	-0.15047714
171	0xbe84ecf2	-0.25962025
172	0xbd4565d9	-0.048192833
173	0xbc650401	-0.013978005
174	0xbd70c9fc	-0.058786377
175	0x3e290b70	0.1650827
176	0xbe3f6a01	-0.18692781
177	0xbe57e261	-0.2108245
178	0xbd86ea94	-0.06587711
179	0x3c745ddd	0.014914957
180	0x3d98103a	0.0742497
181	0x3bb2c733	0.0054558753
182	0xbdebc86c	-0.11512837
183	0x3d8c1b12	0.06841101
184	0xbe64f00d	-0.22357197
185	0xbd6e2291	-0.058138434
186	0xbe0e507a	-0.13897887
187	0xbdc2b497	-0.09507101
188	0xbd9cd581	-0.0765791
189	0x3d8f651b	0.07001706
190	0xbd9bb790	-0.07603371
191	0x3c4f1b46	0.01264078
192	0x3c2f1cdd	0.010688034
193	0xbec9385b	-0.39300808
194	0x3acf5886	0.0015819229
195	0x3a6cb23a	0.00090292434
196	0x3da2c9fd	0.079486825
197	0x3c23a969	0.009989121
198	0xbe40915c	-0.1880545
199	0xbdae93f4	-0.085243136
200	0x3c843612	0.016139064
201	0xbe2b9952	-0.16757706
202	0xbe16b3fe	-0.14717099
203	0xbdc0b992	-0.09410395
204	0x3dd91eec	0.10601601
205	0xbbe8c5dd	-0.0071036653
206	0xbf01c43f	-0.5069007
207	0x3d042697	0.032263365
208	0xbd6e42c5	-0.058169145
209	0x3d112846	0.0354388
210	0x3c1344ab	0.00898854
211	0x3d637392	0.05553014
212	0xbca734ed	-0.02041098
213	0x3b695433	0.0035603165
214	0xbbddd470	-0.0067697093
215	0xbe746055	-0.23864873
216	0xbc2b293d	-0.010446844
217	0x3e8fe8da	0.2810734
218	0x3de7fcfc	0.1132755
219	0xbda8adff	-0.08236312
220	0xbdebccda	-0.11513682
221	0xbd1ba6ed	-0.03800099
222	0x3d453a25	0.048151154
223	0xbf119c75	-0.5687936
224	0xbcdfdbc2	-0.027326468
225	0x3c9d033f	0.019166587
226	0xbd8b57b1	-0.06803835
227	0x3c4ee314	0.012627382
228	0x3d556d9f	0.052106496
229	0x3e68c7b9	0.22732438
230	0xbe0f2850	-0.13980222
231	0xbd9ae1ec	-0.075626224
232	0x3ca12ba9	0.01967414
233	0x3c6a797c	0.014311191
234	0xbb6e6f56	-0.003638228
235	0x3bed5cb3	0.0072437166
236	0xbd077b90	-0.033076823
237	0x3ce6b5ea	0.028162915
238	0xbdf60b42	-0.12013866
239	0xbdebc15e	-0.11511491
240	0xbdd63045	-0.104584254
241	0xbc93855e	-0.01800793
242	0x3ba99743	0.0051755025
243	0x3d91317e	0.07089518
244	0xbdd027f8	-0.101638734
245	0xbeb843cd	-0.35989228
246	0x3d1fdce4	0.039029017
247	0x3d85c623	0.06531932
248	0xbd079c8c	-0.03310828
249	0x3db7d3f5	0.089759745
250	0xbcf5ea90	-0.030019075
251	0xbd5b6853	-0.05356629
252	0x3d89ced0	0.067288995
253	0xbdd12e1d	-0.102138735
254	0xbdf4497a	-0.11928077
255	0xbd92d37a	-0.07169242

fc2.bias f4 [256]
0	0x3bdb4d94	0.0066925976
1	0xbcd37edf	-0.025817333
2	0xbd8a57b3	-0.067550085
3	0xbd81d9fe	-0.06340407
4	0xbd03731a	-0.03209219
5	0x3da97512	0.082742825
6	0x3d371362	0.04469622
7	0x3d29d8b1	0.04146642
8	0x3c5d92a9	0.013523736
9	0xbe01a65c	-0.12661117
10	0xbdba5ccb	-0.0909973
11	0x3d0dedb7	0.03465053
12	0x3e1f96aa	0.15584818
13	0xbd5ade96	-0.05343493
14	0x3cff6e57	0.031180544
15	0xbcacb6b5	-0.021083215
16	0x3d437660	0.047720313
17	0xbcae04cc	-0.021242522
18	0xbc4231ba	-0.011852676
19	0x3dcda4b3	0.100411795
20	0xbceefd50	-0.029173523
21	0x3d95168c	0.07279691
22	0xbad6980c	-0.0016372218
23	0xbdbc8e85	-0.09206871
24	0xbde7ffe0	-0.11328101
25	0xbd9f48d1	-0.077775605
26	0x3ca462c1	0.02006662
27	0xbd8d2eaa	-0.06893666
28	0xbd406078	-0.046967
29	0x3a819b9a	0.0009888292
30	0xbd3d415a	-0.046204902
31	0xbc21b022	-0.0098686535
32	0x3dc0e16b	0.09417995
33	0xbc366094	-0.011131424
34	0xbb3500bf	-0.0027618853
35	0xbd1c9068	-0.038223654
36	0xbdc3a04d	-0.09552059
37	0xbd966800	-0.07344055
38	0xbd9b8db8	-0.0759539
39	0xbd9a2b22	-0.07527758
40	0xbd7b09af	-0.061288532
41	0x3d80f6a1	0.06297041
42	0xbd6aad2a	-0.05729405
43	0xbdb06edf	-0.08614897
44	0xbd1d0f84	-0.038344875
45	0xbd6aeeb1	-0.05735654
46	0xbcceb60a	-0.025233287
47	0x3ce4d8e5	0.027935455
48	0xbd0e12e9	-0.034686003
49	0xbc56e454	-0.013115961
50	0x3d980eba	0.07424684
51	0x3d02a235	0.031892974
52	0xbdbb606e	-0.09149252
53	0xbcdb7d5b	-0.026793173
54	0xbdf62ddc	-0.12020466
55	0x3de5fb1a	0.112295344
56	0x3d3b7d1d	0.045773614
57	0xbd1051e0	-0.035234332
58	0xbd0c1deb	-0.03420822
59	0xbce81345	-0.0283295
60	0x3c8087f4	0.015689828
61	0xbd8f6d72	-0.07003297
62	0x3d3bbbce	0.0458334
63	0x3d223c08	0.03960803
64	0xbd43b9b5	-0.047784526
65	0x3dd11810	0.10209668
66	0xbc645f69	-0.013938763
67	0x3d4370e3	0.04771508
68	0xbd11691c	-0.03550063
69	0x3d08cfa5	0.03340115
70	0xbdc94c52	-0.0982901
71	0xbd8a1bcf	-0.06743585
72	0x3cc38288	0.023865953
73	0xbdb67c3a	-0.08910413
74	0x3c6db1f7	0.014507762
75	0x3ceab114	0.02864889
76	0xbd40cf59	-0.047072742
77	0x3c6749a6	0.01411668
78	0xbd4515f8	-0.048116654
79	0x3cf264ca	0.029589076
80	0x3c7ffdb1	0.01562445
81	0xbd7a3b5a	-0.06109176
82	0x3b7c9c50	0.0038545318
83	0xbd14f649	-0.03636769
84	0xbd6d2a72	-0.057901807
85	0xbd08a03a	-0.03335593
86	0xbdba0819	-0.09083576
87	0x3e08d882	0.13363841
88	0xbd01f330	-0.031726062
89	0xbd793b64	-0.060847655
90	0x3c6e5414	0.014546413
91	0xbdb4be38	-0.08825344
92	0xbd2c2248	-0.04202488
93	0xbc4437b9	-0.011976176
94	0xbbec1344	-0.007204445
95	0xbd8208ce	-0.063493356
96	0x3da1a8d9	0.07893533
97	0xbddca4e9	-0.107736416
98	0x3c7ac5c1	0.015305937
99	0xbb8734ac	-0.004126152
100	0x3e169dac	0.14708585
101	0xbce05ada	-0.027387071
102	0xbd63b37d	-0.055591095
103	0x3d1be353	0.03805859
104	0xbcbe9e4c	-0.023268841
105	0xbc6a64d3	-0.014306265
106	0x3c8e739b	0.01738911
107	0xbe192046	-0.14953718
108	0x3d866c75	0.06563655
109	0x3c69ccdd	0.014270035
110	0xbcc06248	-0.023484364
111	0xbb862c8a	-0.004094665
112	0x3c4c1608	0.0124564245
113	0xbc6d5766	-0.014486169
114	0xbdd1bca4	-0.102410585
115	0xbdaf0472	-0.0854577
116	0x3c5c9a5d	0.013464537
117	0xb7d17063	-2.4967076e-05
118	0xbd855061	-0.06509472
119	0x3d28a34c	0.041171357
120	0xbc36afa2	-0.011150273
121	0xbd1a0834	-0.03760548
122	0xbb019e20	-0.0019778088
123	0xbcb70b0e	-0.022344138
124	0x3c7bffea	0.015380839
125	0x3c58a4e9	0.013222911
126	0xbdf0ca42	-0.117573276
127	0xbdc3104b	-0.09524592
128	0x3ac35c92	0.0014904907
129	0x3c1cd954	0.009573299
130	0x3c86396d	0.016384805
131	0xbdb8852d	-0.09009776
132	0xbcd4cbb4	-0.02597604
133	0xbdc17ea0	-0.0944798
134	0xbd6dac9e	-0.05802595
135	0xbe01a540	-0.12660694
136	0xbd8a2d24	-0.06746891
137	0xbd97c1ad	-0.074099876
138	0x3d706782	0.058692463
139	0xbde43757	-0.11143368
140	0xbdab5436	-0.08365671
141	0xbdd3c78e	-0.103407964
142	0xbd27949b	-0.040913206
143	0x3ce5856e	0.028017726
144	0x3d2e9d5b	0.042630535
145	0xbbd5d4e6	-0.0065256236
146	0xbdd66e8b	-0.10470303
147	0x3b9c1559	0.004763287
148	0x3cb1faf8	0.021726117
149	0x3e0eb0ee	0.13934681
150	0xbda806bc	-0.082044095
151	0xbda3931a	-0.07987042
152	0xbd460dc0	-0.048352957
153	0xbbd93f68	-0.006629873
154	0x3d9be203	0.07611468
155	0x3c9c2b81	0.019063713
156	0xbc4e42c9	-0.012589165
157	0xbd36177c	-0.04445599
158	0xbd73628d	-0.059420157
159	0xba0dee28	-0.0005414211
160	0xbdf57ff5	-0.119872965
161	0xbd32b4f4	-0.0436296
162	0xbd2d9387	-0.04237702
163	0xbe090bee	-0.13383457
164	0xbd848997	-0.06471556
165	0xbd524b76	-0.051341496
166	0x3c99883f	0.018741725
167	0xbd70e160	-0.058808684
168	0x3ca2293f	0.019795058
169	0xbd831e34	-0.06402245
170	0xbd4ad536	-0.04951974
171	0x3d183830	0.03716296
172	0xbd52e5d0	-0.051488698
173	0x3ba72565	0.0051008933
174	0xbd83f463	-0.064430974
175	0xbd86f481	-0.06589604
176	0xbd673953	-0.056451153
177	0xbd3c928b	-0.04603819
178	0xbcc97927	-0.024593903
179	0xbd03a121	-0.032136086
180	0x3c724bd8	0.01478859
181	0x3e47c058	0.19506967
182	0xbbda442c	-0.0066609588
183	0x3cc1033d	0.023561114
184	0x3e0a8d60	0.13530493
185	0xb95c355a	-0.0002100071
186	0x3d85c14f	0.06531011
187	0xbd475d88	-0.048673183
188	0x3b250d78	0.002518503
189	0x3d818b0a	0.06325348
190	0x3da383dc	0.079841346
191	0xbce93678	-0.028468356
192	0xbc9950b9	-0.01871525
193	0xbdbf8d6d	-0.09353147
194	0xbd807004	-0.06271365
195	0xbdb02c8d	-0.086022474
196	0xbcbf3a19	-0.023343133
197	0xbd441eeb	-0.04788105
198	0x3ba434cb	0.005011176
199	0x3e09ed23	0.13469367
200	0x3d29f5ac	0.041494057
201	0xba082337	-0.00051932357
202	0xbd35a400	-0.044345856
203	0xbcf1be26	-0.029509615
204	0xbd63b450	-0.05559188
205	0xbcfe5143	-0.031044608
206	0xbdd8a58f	-0.10578453
207	0xbdc2bec5	-0.09509043
208	0xbd7da144	-0.061921373
209	0xbcb85dd2	-0.022505675
210	0xbdc1f17e	-0.09469889
211	0xbc3cd7d6	-0.011526069
212	0xbda20f11	-0.0791303
213	0xbd6fa624	-0.058508053
214	0xbdd1b88f	-0.1024028
215	0xbcfa24bf	-0.0305351
216	0xbd5548a5	-0.052071232
217	0x3da2a735	0.079420485
218	0xbe0a5f59	-0.13512935
219	0xbd127ceb	-0.035763662
220	0xbd661a00	-0.05617714
221	0x3c631187	0.013859159
222	0xbd3a8bd8	-0.04554352
223	0x3bb3a0a5	0.005481797
224	0xbd9f3df1	-0.07775486
225	0x3d633536	0.055470668
226	0xbdbfd2da	-0.093663886
227	0xbdad3a0b	-0.084583364
228	0xbdc5387a	-0.09629913
229	0x3ddcf087	0.107880645
230	0x3d610953	0.054940533
231	0x3d561cba	0.05227349
232	0x3da4a934	0.080400854
233	0x3d80ad86	0.06283097
234	0xbdd19c26	-0.10234861
235	0x3c9d65c2	0.019213561
236	0x3cf53ef9	0.029937254
237	0xbd85132a	-0.06497796
238	0xbc539452	-0.01291378
239	0x3d6601a2	0.0561539
240	0x3d5e58d9	0.05428395
241	0xbdbffc37	-0.09374278
242	0xb9d2adb4	-0.0004018374
243	0xbc566bd0	-0.013087228
244	0xbda43593	-0.08018031
245	0xbd7c81cd	-0.061647225
246	0xbb7db2a0	-0.0038711205
247	0x3c7df883	0.015501144
248	0xbd89dd8e	-0.06731711
249	0xbda8a4d2	-0.08234562
250	0xbd918d02	-0.07106973
251	0xbd8175bc	-0.06321284
252	0x3c6b2909	0.014353045
253	0xb99940bf	-0.00029230674
254	0x3ded78c9	0.115953036
255	0xbe086160	-0.13318396

fc3.weight f4 [4, 256]
0	0x3c812255	0.015763441
1	0xbcc2c978	-0.023777708
2	0xbc95f395	-0.018304626
3	0xbcd9cceb	-0.02658697
4	0x3c3fa616	0.011697313
5	0x3e898c00	0.26864624
6	0x3d8d0a07	0.06886678
7	0x3dc1239e	0.094306216
8	0x3e9aeaad	0.30257168
9	0xbe4bf997	-0.1991943
10	0xbdcb8ba6	-0.09938745
11	0x3c0e3b43	0.008681121
12	0x3df51652	0.11967148
13	0x3d5f58d5	0.054528076
14	0xbea0269c	-0.31279457
15	0x3d2e6578	0.042577237
16	0x3ccd9797	0.025096698
17	0x3d1b704c	0.03794889
18	0xbcdda137	-0.027054412
19	0x3de6c165	0.11267356
20	0xbdc5511f	-0.09634613
21	0x3cc22a53	0.023701822
22	0x3d99a331	0.075018294
23	0x3d91f046	0.07125907
24	0xbc158b54	-0.009127457
25	0x3ccd4ea0	0.025061905
26	0xbe490de0	-0.19634199
27	0xbbb0d240	-0.0053961575
28	0xbe9905f6	-0.2988736
29	0xbbb6ed39	-0.0055824784
30	0x3d0070ca	0.031357564
31	0xbe299dbc	-0.16564077
32	0x3df46912	0.11934103
33	0xbcba10c7	-0.022713078
34	0x3dddc017	0.10827654
35	0xbe15ae5f	-0.14617299
36	0xbd62ef7b	-0.055404168
37	0xbe57073b	-0.20998852
38	0xbda2b612	-0.079448834
39	0xbbc0e87d	-0.0058870898
40	0x3e007154	0.12543231
41	0x3d10b93c	0.035332903
42	0x3c838555	0.016054789
43	0xbdf5f111	-0.120088704
44	0xbe016538	-0.12636268
45	0xbe17cb6d	-0.14823695
46	0x3d7caf22	0.061690457
47	0xbd1b0841	-0.03784967
48	0xbd04c054	-0.03240998
49	0xbae3eb58	-0.0017388863
50	0x3ecd86aa	0.40141803
51	0xbdd1837c	-0.10230157
52	0xbe29f638	-0.16597831
53	0x3cc8d9e7	0.024517966
54	0xbe2ee485	-0.17079361
55	0x3d989537	0.074503355
56	0xbd768371	-0.060183946
57	0x39f10688	0.00045971968
58	0x3b917467	0.004438925
59	0xbd7a4839	-0.061104033
60	0x3eae6ea9	0.34068802
61	0x3d32ee57	0.04368433
62	0x3edbfc9a	0.42966157
63	0x3cb49e65	0.022048185
64	0x3d25da57	0.04049143
65	0x3e26ff10	0.16308236
66	0x3c897d16	0.016783278
67	0x3e862802	0.262024
68	0x3dd41902	0.10356332
69	0x3d46443b	0.048404913
70	0x3d9ed879	0.07756133
71	0x3df4e1ae	0.119571075
72	0x3c91c5f5	0.017794589
73	0xbdf5b5a3	-0.11997535
74	0x3ddf7d72	0.10912599
75	0xbd25b287	-0.04045346
76	0x3a07da95	0.00051824126
77	0xbe203806	-0.15646371
78	0x3a548847	0.0008107465
79	0x3d438c97	0.0477415
80	0x3e6462aa	0.22303262
81	0xbd846eba	-0.06466432
82	0x3e363d9e	0.17796943
83	0xbbb6067f	-0.0055549736
84	0xbdb637eb	-0.08897384
85	0xbc3001f0	-0.010742649
86	0xbdd9e05a	-0.10638495
87	0x3da57b22	0.08080126
88	0x3d3a6454	0.045505837
89	0x3d18300c	0.037155196
90	0x3b85c9d6	0.0040828986
91	0x3d8a6e2a	0.067592934
92	0xbdaadba9	-0.08342678
93	0xbcace2f2	-0.02110431
94	0x3d836698	0.064160526
95	0x3c908a3b	0.017644038
96	0x3dabcee9	0.08389074
97	0x3d91d1e7	0.07120114
98	0x3e08fad1	0.13376929
99	0x3bc160d1	0.005901434
100	0x3dda1cd9	0.106500335
101	0xbd746d3d	-0.05967449
102	0x3c86299b	0.01637726
103	0x3cd483da	0.025941778
104	0x3d823701	0.063581474
105	0x3e00c038	0.12573326
106	0xbcff0c47	-0.031133784
107	0xbeab61c9	-0.33473042
108	0xbcd268ae	-0.02568468
109	0x3e71ce91	0.23613955
110	0xbec40233	-0.38282928
111	0x3d951f15	0.07281319
112	0x3ede4138	0.43409133
113	0x3e333e37	0.17504202
114	0xbda19b18	-0.0789091
115	0xbcadbbee	-0.021207776
116	0x3dd37c05	0.10326389
117	0x3d5dcd19	0.054150674
118	0x3d8fb646	0.07017188
119	0x3cf3330e	0.02968743
120	0x3e67f900	0.2265358
121	0xbe075f27	-0.13219891
122	0x3dea8b79	0.114523835
123	0xbd0aaa3d	-0.033853758
124	0x3cced129	0.02524622
125	0x3d8ba429	0.068184204
126	0xbd9c3e3c	-0.07629058
127	0xbe0456ce	-0.12923738
128	0x3d8e9bb8	0.06963295
129	0x3d8afd20	0.06786561
130	0x3d60f203	0.0549183
131	0xbd938a5f	-0.072041266
132	0xbe47230a	-0.1944696
133	0xbdb8c22f	-0.090214126
134	0x3b981d34	0.004642153
135	0xbda89380	-0.082312584
136	0xbecc1036	-0.39856118
137	0xbee1b941	-0.4408665
138	0x3debf946	0.115221545
139	0x3cba0517	0.022707505
140	0xbd8dc1ca	-0.06921728
141	0xbd530c68	-0.051525503
142	0xbe17c1bd	-0.14819999
143	0x3d50d8f1	0.05098814
144	0x3d0e1288	0.03468564
145	0xbe5093a4	-0.2036882
146	0x3c1bfbb1	0.009520457
147	0x3bf256bd	0.007395594
148	0xbd1a5f56	-0.037688576
149	0x3dc074e9	0.09397299
150	0xbe304f3f	-0.1721773
151	0x3caaeb94	0.020864286
152	0xbec50d63	-0.38486776
153	0xbb19b06e	-0.0023451108
154	0xbd261e6e	-0.040556364
155	0x3c4a6316	0.0123527255
156	0xbda04d32	-0.07827224
157	0xbd86a53a	-0.06574483
158	0x3cc8bf8b	0.024505397
159	0x3e69d72f	0.22835992
160	0xbecc380e	-0.39886516
161	0x3c356e35	0.011073639
162	0x3cafe1d9	0.021469997
163	0xbde7598d	-0.11296377
164	0xbd94dfcb	-0.072692476
165	0x3e390388	0.18067753
166	0x3eee85af	0.46586367
167	0xbddcc836	-0.10780375
168	0x3d748436	0.0596964
169	0x3e0c10d5	0.13678296
170	0xbe43da13	-0.19126157
171	0xbb6bc166	-0.0035973429
172	0xbdd8c15a	-0.10583754
173	0x3ce90170	0.028443068
174	0xbe84db63	-0.2594863
175	0xbd19ae4d	-0.03751974
176	0x3e3917f9	0.18075551
177	0xbe250ded	-0.16118594
178	0xbe202c27	-0.15641843
179	0xbc8725a7	-0.016497446
180	0x3d26e3be	0.040744536
181	0x3e0a0e1c	0.13481945
182	0x3deb4db3	0.11489429
183	0x3c35c9dc	0.01109549
184	0x3e0b5797	0.13607632
185	0x3d895569	0.06705744
186	0x3d97c117	0.07409876
187	0x3b9d3b03	0.0047982945
188	0xbc909a43	-0.017651683
189	0xbc89ab9e	-0.016805466
190	0x3d55b5de	0.052175395
191	0xbe01a261	-0.12659599
192	0x3d3080b8	0.043091506
193	0x3d92908f	0.071564786
194	0x3e41fbff	0.18943785
195	0xbcb33e85	-0.021880398
196	0xbdbc74d4	-0.09201971
197	0x3d90bc28	0.07067138
198	0xbc7b68c1	-0.0153447995
199	0x3c56932d	0.013096613
200	0x3d7524fa	0.059849717
201	0x3ea08429	0.3135083
202	0xbd13e889	-0.036110435
203	0x3d080742	0.033210047
204	0x3c67055a	0.014100397
205	0x3c8c4ae4	0.017125554
206	0xbdee7c26	-0.11644773
207	0x3c3918ee	0.011297448
208	0xbe21f8fb	-0.15817635
209	0xbcc70603	-0.024294859
210	0xbddfd9f1	-0.10930241
211	0x3df47015	0.119354405
212	0x3d40a34c	0.047030732
213	0xbc35c74d	-0.01109488
214	0x3d9c27b7	0.076247625
215	0xbd3ceb8d	-0.046123076
216	0x3e869ff8	0.2629392
217	0x3df97ce4	0.12182024
218	0xbdd4368d	-0.10361967
219	0xbccb0e56	-0.02478711
220	0xbe74b93b	-0.23898785
221	0xbd3186c2	-0.043341406
222	0xbcf9cc24	-0.03049285
223	0x3e795b5c	0.24351257
224	0x3dab919b	0.083773814
225	0x3e837c06	0.2568056
226	0xbd8558ab	-0.06511053
227	0x3bc5b776	0.006033833
228	0xbed3dec8	-0.41380906
229	0x3d3b999c	0.04580079
230	0x3dbdb091	0.09262193
231	0x3da0a1c2	0.07843353
232	0x3e87a7a3	0.26495084
233	0xbd7f08f5	-0.0622644
234	0x3ca93156	0.020653408
235	0xbe08e389	-0.13368048
236	0x3d011cca	0.031521596
237	0xbd1b3784	-0.03789474
238	0xbe30ae26	-0.17253932
239	0x3d00ddb2	0.031461425
240	0xbe2c6ade	-0.16837642
241	0x3d77ea1d	0.060526002
242	0x3cf97fe3	0.030456489
243	0xbecacbbc	-0.39608562
244	0x3dc68682	0.09693624
245	0x3c48e520	0.012261659
246	0x3c9e05fc	0.019289963
247	0x3d50af1f	0.05094826
248	0xbdabea95	-0.08394352
249	0xbedb5992	-0.42841774
250	0xbe760a11	-0.24027278
251	0x3c116682	0.008874537
252	0xbd017aec	-0.031611368
253	0x3d1ec667	0.03876343
254	0x3c8372f2	0.016046021
255	0x3c8089b1	0.015690656

fc3.bias f4 [4]
0	0x3d87e371	0.06635178
1	0x3dae3141	0.08505488
2	0x3e043be1	0.12913467
3	0x3ce5ff62	0.028075878
